models/openMV/hand_detection-openmv-v0/trained.tflite (tflite, 29408 bytes, 3 tensors)

sequential/y_pred/MatMul;StatefulPartitionedCall/sequential/y_pred/MatMul i1 [2, 9216] scale=0.0006041275 zero_point=0
00000000: f6d9 02d7 00e8 1023 0513 0214 e70d ffff
00000010: 0812 0edb 0b2a f90c eed8 16e7 2a20 0529
00000020: 1b25 e6db 04dc 391e e40a eb12 e5e2 2911
00000030: 11dd 1f10 2924 c907 1ad7 39fd 11d6 0b20
00000040: 0afd 05ea 43e2 de26 faca ffff fc1d fed0
00000050: f805 0801 ec00 feed 08d7 f6de e610 0b08
00000060: 2515 2525 f9e6 0cf6 12f0 2709 f304 efcc
00000070: 2eff e42b e8e6 c3f1 15c2 230f 0cf7 35fa
00000080: 1ce4 0523 3209 ea2d 28d0 4efb 1ff8 20eb
00000090: ecd9 1d2c 1911 c115 18cc 2b20 08e7 24c3
000000a0: 0a02 0d24 fdf3 b124 e4c6 3efc f0f2 30c8
000000b0: 2311 f01b fe00 02fc e7fe 1e05 e8d9 06ee
000000c0: e9e9 e904 2c1b ee0c 1dd5 0ffc f9eb ceee
000000d0: 3ad7 1b2f f103 c623 e9e4 20d3 fc17 0708
000000e0: 30d8 1110 3823 dc04 1018 0ae0 0cde 13fe
000000f0: 09f7 f422 0821 c3e8 e401 2fd7 04f4 02d3
-0.006041275 -0.023560971 0.001208255 -0.024769226 0.0 -0.014499059 0.00966604 0.02114446
0.0030206374 0.011478422 0.001208255 0.01208255 -0.0151031865 0.007853657 -0.0006041275 -0.0006041275
0.00483302 0.010874295 0.008457785 -0.022352716 0.0066454024 0.025373355 -0.0042288923 0.0072495295
-0.010874295 -0.0241651 0.013290805 -0.0151031865 0.025373355 0.01933208 0.0030206374 0.024769226
0.016311442 0.022352716 -0.015707314 -0.022352716 0.00241651 -0.02174859 0.034435265 0.018123824
-0.01691557 0.006041275 -0.012686677 0.010874295 -0.016311442 -0.018123824 0.024769226 0.010270167
0.010270167 -0.02114446 0.018727953 0.00966604 0.024769226 0.02174859 -0.03322701 0.0042288923
0.015707314 -0.024769226 0.034435265 -0.0018123824 0.010270167 -0.025373355 0.0066454024 0.01933208
0.006041275 -0.0018123824 0.0030206374 -0.013290805 0.040476542 -0.018123824 -0.020540334 0.022956844
-0.0036247647 -0.032622885 -0.0006041275 -0.0006041275 -0.00241651 0.017519698 -0.001208255 -0.028998118
-0.00483302 0.0030206374 0.00483302 0.0006041275 -0.01208255 0.0 -0.001208255 -0.011478422
0.00483302 -0.024769226 -0.006041275 -0.020540334 -0.015707314 0.00966604 0.0066454024 0.00483302
0.022352716 0.012686677 0.022352716 0.022352716 -0.0042288923 -0.015707314 0.0072495295 -0.006041275
0.010874295 -0.00966604 0.023560971 0.0054371473 -0.007853657 0.00241651 -0.010270167 -0.031414628
0.027789865 -0.0006041275 -0.01691557 0.025977481 -0.014499059 -0.015707314 -0.036851775 -0.009061912
0.012686677 -0.037455905 0.02114446 0.009061912 0.0072495295 -0.0054371473 0.032018755 -0.0036247647
0.01691557 -0.01691557 0.0030206374 0.02114446 0.030206373 0.0054371473 -0.013290805 0.027185736
0.0241651 -0.028998118 0.047121942 -0.0030206374 0.018727953 -0.00483302 0.01933208 -0.012686677
-0.01208255 -0.023560971 0.017519698 0.02658161 0.0151031865 0.010270167 -0.03806003 0.012686677
0.014499059 -0.031414628 0.025977481 0.01933208 0.00483302 -0.0151031865 0.02174859 -0.036851775
0.006041275 0.001208255 0.007853657 0.02174859 -0.0018123824 -0.007853657 -0.047726072 0.02174859
-0.01691557 -0.035039395 0.037455905 -0.00241651 -0.00966604 -0.008457785 0.028998118 -0.03383114
0.02114446 0.010270167 -0.00966604 0.016311442 -0.001208255 0.0 0.001208255 -0.00241651
-0.0151031865 -0.001208255 0.018123824 0.0030206374 -0.014499059 -0.023560971 0.0036247647 -0.010874295
-0.013894932 -0.013894932 -0.013894932 0.00241651 0.02658161 0.016311442 -0.010874295 0.0072495295
0.017519698 -0.025977481 0.009061912 -0.00241651 -0.0042288923 -0.012686677 -0.030206373 -0.010874295
0.035039395 -0.024769226 0.016311442 0.028393991 -0.009061912 0.0018123824 -0.035039395 0.02114446
-0.013894932 -0.01691557 0.01933208 -0.027185736 -0.00241651 0.013894932 0.0042288923 0.00483302
0.028998118 -0.0241651 0.010270167 0.00966604 0.03383114 0.02114446 -0.02174859 0.00241651
0.00966604 0.014499059 0.006041275 -0.01933208 0.0072495295 -0.020540334 0.011478422 -0.001208255
0.0054371473 -0.0054371473 -0.0072495295 0.020540334 0.00483302 0.019936206 -0.036851775 -0.014499059
-0.01691557 0.0006041275 0.028393991 -0.024769226 0.00241651 -0.0072495295 0.001208255 -0.027185736

sequential/conv2d/Conv2D;StatefulPartitionedCall/sequential/conv2d/Conv2D i1 [32, 3, 3, 3]
00000000: a256 50f7 d69c 6f04 ba81 72fa 13c3 e8b4
00000010: f133 7bd5 1964 cff4 9254 1b13 1be7 70f4
00000020: 985f b217 08cc b868 89f0 275f c947 9981
00000030: 3a48 6af9 bdf2 fb81 cc4c 29ae d1a0 5ef5
00000040: adc4 d451 50c8 0715 1d7e 8e55 ca36 b06a
00000050: 9c81 68d8 0f14 0856 b4ed afd5 46d6 d1f1
00000060: e4d2 1a8b 8bfc 3b1a 5454 fbaf f46a 92fe
00000070: 231e 1a76 7360 c643 f495 76e7 3124 ca54
00000080: cb42 295a 9936 7f4b 0f3e 7f43 0218 e29e
00000090: 13ca f0ad c735 bdf9 b715 9107 296d 4451
000000a0: 024c 92f2 bb22 4fcd e57f f004 f109 f4f7
000000b0: bd27 9b57 ab23 c80e 38f2 9f71 81e3 3aee
000000c0: 2ebe 6277 6839 7f01 9461 ba1f f974 6220
000000d0: 9598 4aa7 e908 13d0 2cb7 c27c fa4c 7dc3
000000e0: f399 1f70 d5c9 cab7 8137 f712 d123 b657
000000f0: 874f 6d07 065c 411a 4456 7cbc f729 607d
-94 86 80 -9 -42 -100 111 4
-70 -127 114 -6 19 -61 -24 -76
-15 51 123 -43 25 100 -49 -12
-110 84 27 19 27 -25 112 -12
-104 95 -78 23 8 -52 -72 104
-119 -16 39 95 -55 71 -103 -127
58 72 106 -7 -67 -14 -5 -127
-52 76 41 -82 -47 -96 94 -11
-83 -60 -44 81 80 -56 7 21
29 126 -114 85 -54 54 -80 106
-100 -127 104 -40 15 20 8 86
-76 -19 -81 -43 70 -42 -47 -15
-28 -46 26 -117 -117 -4 59 26
84 84 -5 -81 -12 106 -110 -2
35 30 26 118 115 96 -58 67
-12 -107 118 -25 49 36 -54 84
-53 66 41 90 -103 54 127 75
15 62 127 67 2 24 -30 -98
19 -54 -16 -83 -57 53 -67 -7
-73 21 -111 7 41 109 68 81
2 76 -110 -14 -69 34 79 -51
-27 127 -16 4 -15 9 -12 -9
-67 39 -101 87 -85 35 -56 14
56 -14 -97 113 -127 -29 58 -18
46 -66 98 119 104 57 127 1
-108 97 -70 31 -7 116 98 32
-107 -104 74 -89 -23 8 19 -48
44 -73 -62 124 -6 76 125 -61
-13 -103 31 112 -43 -55 -54 -73
-127 55 -9 18 -47 35 -74 87
-121 79 109 7 6 92 65 26
68 86 124 -68 -9 41 96 125

sequential/conv2d_1/Conv2D;StatefulPartitionedCall/sequential/conv2d_1/Conv2D i1 [16, 3, 3, 32]
00000000: b5ee d157 e9be 5be5 43fe a7fd d78e 0fdd
00000010: 46bc 4656 1b67 4702 46e1 b14b f8dc cb4e
00000020: fa17 5600 dee6 c8b2 a136 a238 382f 0430
00000030: 12eb 9d6d 29be 0741 0f10 b5fb f5cc a3ad
00000040: 980d 9d06 d937 1074 9b55 4b4f c3d9 ac3f
00000050: 20ac 1016 194e ad21 16b0 15a5 b4cc c103
00000060: 34d4 c758 45f9 30ab b2fb adec 9eb9 2654
00000070: e64f cf4a 5763 f6f0 160d ea2a 1b56 2fa6
00000080: 0daa 21d0 1126 6018 fb61 edd3 8df1 2d53
00000090: 59ac e72c 983b 0fec 9ad1 89a3 aed1 05de
000000a0: 2019 da22 3a4c 00b4 a04d 5257 b7bf db60
000000b0: 92f2 3002 9cf0 ec30 19fb 3233 a00d f30b
000000c0: f1f5 bab8 b15e 164c 81e4 63df 9aa3 a30a
000000d0: 20f0 3c3c 14f7 fbf1 8aca d800 3de7 a5b4
000000e0: dcc6 bfc6 07e6 235f 9de0 5b77 1497 dc41
000000f0: 1dca 5735 1111 f726 25be be38 b3b1 a8fb
-75 -18 -47 87 -23 -66 91 -27
67 -2 -89 -3 -41 -114 15 -35
70 -68 70 86 27 103 71 2
70 -31 -79 75 -8 -36 -53 78
-6 23 86 0 -34 -26 -56 -78
-95 54 -94 56 56 47 4 48
18 -21 -99 109 41 -66 7 65
15 16 -75 -5 -11 -52 -93 -83
-104 13 -99 6 -39 55 16 116
-101 85 75 79 -61 -39 -84 63
32 -84 16 22 25 78 -83 33
22 -80 21 -91 -76 -52 -63 3
52 -44 -57 88 69 -7 48 -85
-78 -5 -83 -20 -98 -71 38 84
-26 79 -49 74 87 99 -10 -16
22 13 -22 42 27 86 47 -90
13 -86 33 -48 17 38 96 24
-5 97 -19 -45 -115 -15 45 83
89 -84 -25 44 -104 59 15 -20
-102 -47 -119 -93 -82 -47 5 -34
32 25 -38 34 58 76 0 -76
-96 77 82 87 -73 -65 -37 96
-110 -14 48 2 -100 -16 -20 48
25 -5 50 51 -96 13 -13 11
-15 -11 -70 -72 -79 94 22 76
-127 -28 99 -33 -102 -93 -93 10
32 -16 60 60 20 -9 -5 -15
-118 -54 -40 0 61 -25 -91 -76
-36 -58 -65 -58 7 -26 35 95
-99 -32 91 119 20 -105 -36 65
29 -54 87 53 17 17 -9 38
37 -66 -66 56 -77 -79 -88 -5
