models/openMV/cough_image_short_distance_v1/trained.tflite (tflite, 49120 bytes, 4 tensors)

sequential/dense/MatMul;StatefulPartitionedCall/sequential/dense/MatMul i1 [10, 4096] scale=0.0007028574 zero_point=0
000000 f9 ee fb 05 1b da fe dc ca dc 33 15 20 0a 0c 1e
       -0.0049200016 -0.012651433 -0.003514287 0.003514287 0.01897715 -0.02670858 -0.0014057148 -0.025302866 -0.0379543 -0.025302866 0.035845727 0.014760005 0.022491436 0.007028574 0.008434288 0.021085722
000010 ee fe de 3a 09 18 dc 2a f1 12 10 41 2d d9 e2 31
       -0.012651433 -0.0014057148 -0.02389715 0.04076573 0.0063257166 0.016868576 -0.025302866 0.02952001 -0.010542861 0.012651433 0.011245718 0.04568573 0.031628583 -0.027411439 -0.021085722 0.03444001
000020 ff e4 12 ea e7 31 0d ed fb 00 33 21 f3 d3 0f f5
       -0.0007028574 -0.019680006 0.012651433 -0.015462862 -0.017571434 0.03444001 0.009137146 -0.01335429 -0.003514287 0.0 0.035845727 0.023194294 -0.009137146 -0.031628583 0.010542861 -0.007731431
000030 fc 21 ff 03 d3 22 29 21 b9 0e 13 ea fd 2d 26 13
       -0.0028114296 0.023194294 -0.0007028574 0.002108572 -0.031628583 0.02389715 0.028817153 0.023194294 -0.049902875 0.009840003 0.01335429 -0.015462862 -0.002108572 0.031628583 0.02670858 0.01335429
000040 f2 d5 1e d8 d8 cf fe df e8 00 32 ca 2d 06 17 17
       -0.009840003 -0.030222869 0.021085722 -0.028114296 -0.028114296 -0.03444001 -0.0014057148 -0.023194294 -0.016868576 0.0 0.03514287 -0.0379543 0.031628583 0.004217144 0.01616572 0.01616572
000050 2e 1a 1e 03 fb d9 f0 00 15 d8 fe 0c 30 18 2f d7
       0.03233144 0.018274292 0.021085722 0.002108572 -0.003514287 -0.027411439 -0.011245718 0.0 0.014760005 -0.028114296 -0.0014057148 0.008434288 0.033737153 0.016868576 0.0330343 -0.028817153
000060 db 48 fe 0f 26 d6 e1 40 fa ff ee 2f 37 14 f3 e8
       -0.026005723 0.050605733 -0.0014057148 0.010542861 0.02670858 -0.02952001 -0.021788578 0.044982873 -0.004217144 -0.0007028574 -0.012651433 0.0330343 0.038657155 0.014057148 -0.009137146 -0.016868576
000070 19 f7 15 2f 25 42 0b 01 39 1e 37 3b 09 f9 da 0d
       0.017571434 -0.0063257166 0.014760005 0.0330343 0.026005723 0.04638859 0.007731431 0.0007028574 0.04006287 0.021085722 0.038657155 0.041468587 0.0063257166 -0.0049200016 -0.02670858 0.009137146
000080 e6 dd dc df 25 44 08 07 05 ef 2c fc 23 2d 0b 2c
       -0.018274292 -0.024600009 -0.025302866 -0.023194294 0.026005723 0.0477943 0.005622859 0.0049200016 0.003514287 -0.011948575 0.030925725 -0.0028114296 0.024600009 0.031628583 0.007731431 0.030925725
000090 01 d5 3a 28 fc e4 fb db 1d 0b df 3c 49 da e3 20
       0.0007028574 -0.030222869 0.04076573 0.028114296 -0.0028114296 -0.019680006 -0.003514287 -0.026005723 0.020382864 0.007731431 -0.023194294 0.042171445 0.05130859 -0.02670858 -0.020382864 0.022491436
0000a0 0c 00 dc 2f 3e 15 10 ee b9 d1 f4 02 06 db 18 da
       0.008434288 0.0 -0.025302866 0.0330343 0.043577157 0.014760005 0.011245718 -0.012651433 -0.049902875 -0.0330343 -0.008434288 0.0014057148 0.004217144 -0.026005723 0.016868576 -0.02670858
0000b0 06 31 12 36 fb 0c f2 04 c6 da 2c 06 33 05 f0 eb
       0.004217144 0.03444001 0.012651433 0.0379543 -0.003514287 0.008434288 -0.009840003 0.0028114296 -0.04076573 -0.02670858 0.030925725 0.004217144 0.035845727 0.003514287 -0.011245718 -0.014760005
0000c0 f1 dd 17 f5 ea 18 15 d7 20 cd 2b e3 d3 23 2c e1
       -0.010542861 -0.024600009 0.01616572 -0.007731431 -0.015462862 0.016868576 0.014760005 -0.028817153 0.022491436 -0.035845727 0.030222869 -0.020382864 -0.031628583 0.024600009 0.030925725 -0.021788578
0000d0 bf 06 c9 db 1e 1e 0e e1 37 e5 2a e6 fb ca 21 d5
       -0.04568573 0.004217144 -0.038657155 -0.026005723 0.021085722 0.021085722 0.009840003 -0.021788578 0.038657155 -0.01897715 0.02952001 -0.018274292 -0.003514287 -0.0379543 0.023194294 -0.030222869
0000e0 15 cd db 1a 0f e9 0f cf 12 d2 ec df da 2b 1a ea
       0.014760005 -0.035845727 -0.026005723 0.018274292 0.010542861 -0.01616572 0.010542861 -0.03444001 0.012651433 -0.03233144 -0.014057148 -0.023194294 -0.02670858 0.030222869 0.018274292 -0.015462862
0000f0 f9 5b dd 38 ff 06 06 01 46 1e b9 2a eb f5 e4 27
       -0.0049200016 0.06396002 -0.024600009 0.039360013 -0.0007028574 0.004217144 0.004217144 0.0007028574 0.049200017 0.021085722 -0.049902875 0.02952001 -0.014760005 -0.007731431 -0.019680006 0.027411439

sequential/y_pred/MatMul;StatefulPartitionedCall/sequential/y_pred/MatMul i1 [2, 10] scale=0.00556652 zero_point=0
000000 2b b9 59 cb 9b 90 c2 9e ea 07 cd 35 92 6b 08 2e
       0.23936036 -0.39522293 0.4954203 -0.29502556 -0.56221855 -0.6234503 -0.34512424 -0.545519 -0.12246344 0.038965642 -0.28389254 0.29502556 -0.6123172 0.59561765 0.04453216 0.2560599
000010 9f 8c 81 49
       -0.53995246 -0.6457163 -0.70694804 0.40635598

sequential/conv2d/Conv2D;StatefulPartitionedCall/sequential/conv2d/Conv2D i1 [16, 3, 3, 1]
000000 8b 90 7f 40 6e eb 05 d2 d7 1e d5 27 1b f7 23 7f
       -117 -112 127 64 110 -21 5 -46 -41 30 -43 39 27 -9 35 127
000010 f1 02 fd a9 82 81 cc ff 4d d1 26 a8 f8 7f 0e 00
       -15 2 -3 -87 -126 -127 -52 -1 77 -47 38 -88 -8 127 14 0
000020 36 2b 76 35 15 c7 7f 2c aa 42 24 19 3a 4b 2d 18
       54 43 118 53 21 -57 127 44 -86 66 36 25 58 75 45 24
000030 f4 4b 0f 7f e5 49 b2 8e ef 7f b4 e5 2e 3c 4e bf
       -12 75 15 127 -27 73 -78 -114 -17 127 -76 -27 46 60 78 -65
000040 d6 69 cb f0 81 47 17 b3 3b 58 c5 5d cc 5d 7f a4
       -42 105 -53 -16 -127 71 23 -77 59 88 -59 93 -52 93 127 -92
000050 fb ff b9 0a 81 7f 93 4e 7a 33 9c 7a 9c 6a c6 79
       -5 -1 -71 10 -127 127 -109 78 122 51 -100 122 -100 106 -58 121
000060 25 81 f8 70 7f b7 62 3b 1d 7b c5 12 4f 55 cf 2b
       37 -127 -8 112 127 -73 98 59 29 123 -59 18 79 85 -49 43
000070 33 7f 4d a9 aa 1e 2c 01 df ac 2a 07 34 7f b1 96
       51 127 77 -87 -86 30 44 1 -33 -84 42 7 52 127 -79 -106
000080 f0 3c 7f 44 de 32 e8 d3 49 c0 43 44 f3 7f 24 22
       -16 60 127 68 -34 50 -24 -45 73 -64 67 68 -13 127 36 34

sequential/conv2d_1/Conv2D;StatefulPartitionedCall/sequential/conv2d_1/Conv2D i1 [16, 3, 3, 16]
000000 d6 fc d2 76 fd c5 72 d0 68 13 bd fe f7 c5 3f e7
       -42 -4 -46 118 -3 -59 114 -48 104 19 -67 -2 -9 -59 63 -25
000010 40 e2 4d 62 3c 70 50 03 72 08 d0 69 19 f2 d9 6d
       64 -30 77 98 60 112 80 3 114 8 -48 105 25 -14 -39 109
000020 fc 26 61 20 ed ee d6 87 d0 32 b4 3f 6c 53 2b 3c
       -4 38 97 32 -19 -18 -42 -121 -48 50 -76 63 108 83 43 60
000030 25 1c a8 79 4b cc 28 25 39 1e dd 12 1b e9 be cb
       37 28 -88 121 75 -52 40 37 57 30 -35 18 27 -23 -66 -53
000040 bd 1d b6 2f ec 41 32 5f d5 6a 5c 58 fa 08 e7 51
       -67 29 -74 47 -20 65 50 95 -43 106 92 88 -6 8 -25 81
000050 0e e2 27 1f 30 58 c0 15 49 bd 33 c5 d6 e0 c2 2b
       14 -30 39 31 48 88 -64 21 73 -67 51 -59 -42 -32 -62 43
000060 5b e5 d2 7c 5c fc 4f 81 df 04 ca ef cd f0 5a 59
       91 -27 -46 124 92 -4 79 -127 -33 4 -54 -17 -51 -16 90 89
000070 fb 69 db 57 76 6d 1a f8 4a 2d 16 44 3c 65 39 cf
       -5 105 -37 87 118 109 26 -8 74 45 22 68 60 101 57 -49
000080 15 ba 29 f2 20 2a 63 ec 22 61 f9 df ca 1e 58 5b
       21 -70 41 -14 32 42 99 -20 34 97 -7 -33 -54 30 88 91
000090 d5 6d c0 d5 1c f2 57 21 c7 ea f3 20 d2 3b 02 06
       -43 109 -64 -43 28 -14 87 33 -57 -22 -13 32 -46 59 2 6
0000a0 55 6e 25 70 56 02 d3 07 6f cb 0f 5c 47 3f 30 3b
       85 110 37 112 86 2 -45 7 111 -53 15 92 71 63 48 59
0000b0 e7 53 70 18 29 0d d5 ae fa 06 7f 09 08 da 69 75
       -25 83 112 24 41 13 -43 -82 -6 6 127 9 8 -38 105 117
0000c0 75 0f 43 5c cd 1c d8 d4 f3 57 01 03 2a c7 de 2b
       117 15 67 92 -51 28 -40 -44 -13 87 1 3 42 -57 -34 43
0000d0 ef 3d 07 4c 5a eb 71 f7 10 57 47 f0 3b 68 6a 18
       -17 61 7 76 90 -21 113 -9 16 87 71 -16 59 104 106 24
0000e0 70 74 bd e4 58 e8 6c 3d 32 3a 4f fa d0 ba f2 0d
       112 116 -67 -28 88 -24 108 61 50 58 79 -6 -48 -70 -14 13
0000f0 d7 26 f9 de 3f fe 22 b6 32 35 2c d9 4b 5a 5c 07
       -41 38 -7 -34 63 -2 34 -74 50 53 44 -39 75 90 92 7
