raspberry_pi/trained.tflite (tflite, 6288 bytes, 3 tensors)

sequential/y_pred/MatMul;StatefulPartitionedCall/sequential/y_pred/MatMul i1 [3, 144] scale=0.0027999757 zero_point=0
0	0x04	0.011199903
1	0xde	-0.095199175
2	0xd3	-0.1259989
3	0x4b	0.20999818
4	0x32	0.13999878
5	0x13	0.053199537
6	0x29	0.114799
7	0x2a	0.11759898
8	0xe8	-0.06719942
9	0x0c	0.03359971
10	0x0c	0.03359971
11	0x39	0.15959862
12	0x23	0.09799915
13	0x47	0.19879827
14	0x46	0.1959983
15	0xf8	-0.022399805
16	0xe7	-0.06999939
17	0x2f	0.13159886
18	0xe5	-0.07559934
19	0xe0	-0.08959922
20	0x12	0.050399564
21	0x2d	0.1259989
22	0x44	0.19039835
23	0x46	0.1959983
24	0xfe	-0.0055999514
25	0xe6	-0.07279937
26	0xfa	-0.016799854
27	0xe0	-0.08959922
28	0xe6	-0.07279937
29	0x1c	0.078399315
30	0xa6	-0.2519978
31	0xd5	-0.12039895
32	0x0b	0.030799732
33	0x51	0.22679803
34	0x10	0.04479961
35	0xc9	-0.15399866
36	0xff	-0.0027999757
37	0x4a	0.2071982
38	0xa6	-0.2519978
39	0x26	0.106399074
40	0x13	0.053199537
41	0xb3	-0.21559812
42	0x19	0.06999939
43	0xcf	-0.1371988
44	0x0d	0.036399685
45	0xc0	-0.17919844
46	0xc6	-0.16239859
47	0x37	0.15399866
48	0x08	0.022399805
49	0xdf	-0.092399195
50	0xfa	-0.016799854
51	0xcc	-0.14559874
52	0xef	-0.047599588
53	0x13	0.053199537
54	0x00	0.0
55	0x3a	0.16239859
56	0xce	-0.13999878
57	0x06	0.016799854
58	0xe2	-0.08399927
59	0xca	-0.15119869
60	0xed	-0.053199537
61	0xc9	-0.15399866
62	0xd1	-0.13159886
63	0xd3	-0.1259989
64	0x10	0.04479961
65	0x19	0.06999939
66	0xd0	-0.13439883
67	0xce	-0.13999878
68	0x33	0.14279877
69	0x24	0.10079913
70	0x05	0.013999878
71	0x08	0.022399805
72	0xf8	-0.022399805
73	0xd9	-0.109199055
74	0xb3	-0.21559812
75	0xb8	-0.20159826
76	0xc8	-0.15679863
77	0x99	-0.2883975
78	0x84	-0.347197
79	0xd7	-0.114799
80	0xe3	-0.081199296
81	0x22	0.095199175
82	0x2a	0.11759898
83	0xe6	-0.07279937
84	0x52	0.229598
85	0xd8	-0.11199903
86	0xc9	-0.15399866
87	0xe8	-0.06719942
88	0x0b	0.030799732
89	0xbc	-0.19039835
90	0x14	0.055999514
91	0xf8	-0.022399805
92	0xfb	-0.013999878
93	0xfb	-0.013999878
94	0x00	0.0
95	0xed	-0.053199537
96	0xe7	-0.06999939
97	0x0b	0.030799732
98	0x2d	0.1259989
99	0x3e	0.1735985
100	0xc2	-0.1735985
101	0xa3	-0.26039773
102	0xd4	-0.12319893
103	0x24	0.10079913
104	0xf2	-0.039199658
105	0xcd	-0.14279877
106	0xb7	-0.20439823
107	0x0b	0.030799732
108	0x2c	0.12319893
109	0x26	0.106399074
110	0xc6	-0.16239859
111	0x16	0.061599463
112	0x91	-0.3107973
113	0xb3	-0.21559812
114	0xdb	-0.1035991
115	0xbf	-0.18199842
116	0x49	0.20439823
117	0x00	0.0
118	0x11	0.047599588
119	0x37	0.15399866
120	0xed	-0.053199537
121	0x0b	0.030799732
122	0xfd	-0.008399927
123	0xb9	-0.19879827
124	0xd5	-0.12039895
125	0x11	0.047599588
126	0xfb	-0.013999878
127	0xe5	-0.07559934
128	0xee	-0.050399564
129	0x48	0.20159826
130	0xf5	-0.030799732
131	0x52	0.229598
132	0x40	0.17919844
133	0xf9	-0.019599829
134	0x03	0.008399927
135	0x55	0.23799793
136	0xf3	-0.036399685
137	0x1b	0.07559934
138	0x1f	0.08679925
139	0x30	0.13439883
140	0x52	0.229598
141	0xd7	-0.114799
142	0xff	-0.0027999757
143	0x2d	0.1259989
144	0xfd	-0.008399927
145	0xcf	-0.1371988
146	0x1a	0.07279937
147	0xb5	-0.20999818
148	0xfb	-0.013999878
149	0xdc	-0.10079913
150	0xda	-0.106399074
151	0xf1	-0.041999634
152	0x0d	0.036399685
153	0xec	-0.055999514
154	0xa0	-0.26879767
155	0xef	-0.047599588
156	0x21	0.092399195
157	0xfe	-0.0055999514
158	0xc5	-0.16519856
159	0xf3	-0.036399685
160	0xa5	-0.2547978
161	0x1d	0.081199296
162	0xe6	-0.07279937
163	0x10	0.04479961
164	0x0c	0.03359971
165	0x19	0.06999939
166	0xc7	-0.15959862
167	0xa7	-0.24919784
168	0xf5	-0.030799732
169	0x3e	0.1735985
170	0xe7	-0.06999939
171	0x2b	0.12039895
172	0x46	0.1959983
173	0xf0	-0.04479961
174	0x10	0.04479961
175	0x26	0.106399074
176	0x4b	0.20999818
177	0x64	0.27999756
178	0x43	0.18759838
179	0x20	0.08959922
180	0x02	0.0055999514
181	0x27	0.109199055
182	0x01	0.0027999757
183	0x3b	0.16519856
184	0x18	0.06719942
185	0x27	0.109199055
186	0x16	0.061599463
187	0x07	0.019599829
188	0xfe	-0.0055999514
189	0x58	0.24639785
190	0x0a	0.027999757
191	0x39	0.15959862
192	0x0c	0.03359971
193	0xb9	-0.19879827
194	0x04	0.011199903
195	0x5a	0.2519978
196	0xf9	-0.019599829
197	0xee	-0.050399564
198	0x20	0.08959922
199	0xe3	-0.081199296
200	0x1d	0.081199296
201	0x3f	0.17639847
202	0x1a	0.07279937
203	0xca	-0.15119869
204	0x29	0.114799
205	0xc1	-0.17639847
206	0x3a	0.16239859
207	0x76	0.33039713
208	0x20	0.08959922
209	0x34	0.14559874
210	0x08	0.022399805
211	0xc4	-0.16799854
212	0x3d	0.17079851
213	0x35	0.14839871
214	0x17	0.06439944
215	0x15	0.05879949
216	0xc8	-0.15679863
217	0xd0	-0.13439883
218	0x4a	0.2071982
219	0x2c	0.12319893
220	0x3e	0.1735985
221	0xd9	-0.109199055
222	0xec	-0.055999514
223	0xed	-0.053199537
224	0x53	0.23239799
225	0x2c	0.12319893
226	0x25	0.1035991
227	0x0a	0.027999757
228	0xe0	-0.08959922
229	0x04	0.011199903
230	0x4a	0.2071982
231	0x35	0.14839871
232	0x08	0.022399805
233	0x2f	0.13159886
234	0xf1	-0.041999634
235	0xf5	-0.030799732
236	0x34	0.14559874
237	0x4d	0.21559812
238	0x45	0.19319832
239	0x16	0.061599463
240	0x2d	0.1259989
241	0x2e	0.12879889
242	0x4f	0.22119808
243	0x11	0.047599588
244	0x22	0.095199175
245	0x0f	0.041999634
246	0x2b	0.12039895
247	0x32	0.13999878
248	0x33	0.14279877
249	0x65	0.28279755
250	0xe0	-0.08959922
251	0xfc	-0.011199903
252	0x33	0.14279877
253	0xe0	-0.08959922
254	0x1d	0.081199296
255	0x33	0.14279877

sequential/conv2d/Conv2D;StatefulPartitionedCall/sequential/conv2d/Conv2D i1 [32, 3, 3, 3]
0	0x98	-104
1	0x4e	78
2	0x42	66
3	0xda	-38
4	0xc6	-58
5	0x81	-127
6	0x56	86
7	0xf9	-7
8	0xa4	-92
9	0x87	-121
10	0x77	119
11	0xfd	-3
12	0x0a	10
13	0xc7	-57
14	0xdf	-33
15	0xb0	-80
16	0xf5	-11
17	0x2c	44
18	0x7c	124
19	0xe3	-29
20	0x1f	31
21	0x68	104
22	0xe2	-30
23	0xfc	-4
24	0x93	-109
25	0x5a	90
26	0x1d	29
27	0x22	34
28	0x1a	26
29	0xdd	-35
30	0x6b	107
31	0xf6	-10
32	0x92	-110
33	0x5b	91
34	0xbf	-65
35	0xfb	-5
36	0x12	18
37	0xd0	-48
38	0xb0	-80
39	0x64	100
40	0x9e	-98
41	0xde	-34
42	0x2d	45
43	0x4f	79
44	0xba	-70
45	0x40	64
46	0xa2	-94
47	0x81	-127
48	0x40	64
49	0x41	65
50	0x4b	75
51	0x08	8
52	0xcb	-53
53	0xe2	-30
54	0xe9	-23
55	0x81	-127
56	0xbf	-65
57	0x2f	47
58	0x1b	27
59	0xae	-82
60	0xc7	-57
61	0xb5	-75
62	0x51	81
63	0xef	-17
64	0xb5	-75
65	0xc9	-55
66	0xdf	-33
67	0x51	81
68	0x4a	74
69	0xd9	-39
70	0x1f	31
71	0x29	41
72	0x1a	26
73	0x70	112
74	0xa9	-87
75	0x4b	75
76	0xe0	-32
77	0x35	53
78	0xc1	-63
79	0x6e	110
80	0xbf	-65
81	0x8b	-117
82	0x61	97
83	0xf6	-10
84	0x06	6
85	0x1d	29
86	0x1d	29
87	0x43	67
88	0xcd	-51
89	0x03	3
90	0xad	-83
91	0xe1	-31
92	0x4f	79
93	0xd3	-45
94	0xe3	-29
95	0x07	7
96	0xe6	-26
97	0xe7	-25
98	0x2a	42
99	0x81	-127
100	0x97	-105
101	0x04	4
102	0x2a	42
103	0x21	33
104	0x5c	92
105	0x47	71
106	0x0c	12
107	0xd2	-46
108	0x12	18
109	0x69	105
110	0xac	-84
111	0x17	23
112	0x24	36
113	0x25	37
114	0x38	56
115	0x72	114
116	0x73	115
117	0x74	116
118	0xde	-34
119	0x4b	75
120	0x14	20
121	0xad	-83
122	0x78	120
123	0x13	19
124	0x3c	60
125	0x35	53
126	0xf5	-11
127	0x5d	93
128	0xe5	-27
129	0x56	86
130	0x2d	45
131	0x5d	93
132	0xc9	-55
133	0x3c	60
134	0x7f	127
135	0x47	71
136	0x0f	15
137	0x49	73
138	0x7f	127
139	0x45	69
140	0x15	21
141	0x28	40
142	0xee	-18
143	0xbc	-68
144	0x1e	30
145	0xda	-38
146	0x0a	10
147	0xb6	-74
148	0xd2	-46
149	0x4e	78
150	0xcc	-52
151	0x05	5
152	0xd3	-45
153	0x20	32
154	0xa0	-96
155	0x20	32
156	0x2e	46
157	0x72	114
158	0x59	89
159	0x53	83
160	0x03	3
161	0x5a	90
162	0x9e	-98
163	0xe1	-31
164	0xa0	-96
165	0x1b	27
166	0x3e	62
167	0xc4	-60
168	0xdf	-33
169	0x68	104
170	0xe1	-31
171	0x08	8
172	0xe2	-30
173	0xe9	-23
174	0xf5	-11
175	0xec	-20
176	0xb7	-73
177	0x21	33
178	0x94	-108
179	0x42	66
180	0xb1	-79
181	0x0f	15
182	0xb3	-77
183	0x0a	10
184	0x2a	42
185	0xec	-20
186	0xa3	-93
187	0x5d	93
188	0x81	-127
189	0xda	-38
190	0x1e	30
191	0xd0	-48
192	0x1a	26
193	0xb4	-76
194	0x33	51
195	0x5d	93
196	0x4c	76
197	0x13	19
198	0x61	97
199	0xec	-20
200	0x81	-127
201	0x4e	78
202	0xb7	-73
203	0x00	0
204	0xf0	-16
205	0x58	88
206	0x38	56
207	0x13	19
208	0x95	-107
209	0x8d	-115
210	0x41	65
211	0xb2	-78
212	0xde	-34
213	0x05	5
214	0x0f	15
215	0xc9	-55
216	0x12	18
217	0xad	-83
218	0xbf	-65
219	0x6b	107
220	0xfe	-2
221	0x4c	76
222	0x6c	108
223	0xd4	-44
224	0x01	1
225	0x8d	-115
226	0x0f	15
227	0x62	98
228	0xc8	-56
229	0xcb	-53
230	0xd1	-47
231	0xa8	-88
232	0x8d	-115
233	0x3c	60
234	0xde	-34
235	0x03	3
236	0xd1	-47
237	0x0e	14
238	0xbe	-66
239	0x5a	90
240	0x81	-127
241	0x55	85
242	0x79	121
243	0xe2	-30
244	0xf0	-16
245	0x3b	59
246	0x12	18
247	0x03	3
248	0x23	35
249	0x22	34
250	0x54	84
251	0xb1	-79
252	0xd6	-42
253	0x0f	15
254	0x3e	62
255	0x40	64

sequential/conv2d_1/Conv2D;StatefulPartitionedCall/sequential/conv2d_1/Conv2D i1 [1, 1, 1, 32] scale=0.0040850784 zero_point=0
0	0x98	-0.42484814
1	0x98	-0.42484814
2	0x81	-0.51880497
3	0x8d	-0.46978402
4	0x16	0.08987173
5	0x42	0.26961517
6	0x4f	0.32272118
7	0xc0	-0.26144502
8	0x87	-0.4942945
9	0xe7	-0.102126956
10	0xfd	-0.012255235
11	0x17	0.093956806
12	0x6a	0.4330183
13	0xcd	-0.20833899
14	0x03	0.012255235
15	0x59	0.36357197
16	0xb6	-0.3022958
17	0x56	0.35131675
18	0x3d	0.24918978
19	0x29	0.16748822
20	0x1b	0.11029711
21	0xcd	-0.20833899
22	0x16	0.08987173
23	0x9d	-0.40442276
24	0x99	-0.42076308
25	0x84	-0.5065497
26	0x11	0.06944633
27	0x9c	-0.40850782
28	0x18	0.09804188
29	0x1c	0.11438219
30	0x19	0.102126956
31	0x3b	0.24101962
