models/openMV/cough_image_v3/trained.tflite (tflite, 103264 bytes, 4 tensors)

sequential/dense/MatMul;StatefulPartitionedCall/sequential/dense/MatMul i1 [10, 9216] scale=0.0033758236 zero_point=0
0	0xfe	-0.006751647
1	0x01	0.0033758236
2	0x04	0.013503294
3	0x03	0.010127471
4	0x07	0.023630764
5	0xf7	-0.030382413
6	0x04	0.013503294
7	0x01	0.0033758236
8	0xfe	-0.006751647
9	0x00	0.0
10	0x07	0.023630764
11	0x07	0.023630764
12	0x03	0.010127471
13	0x06	0.020254942
14	0x00	0.0
15	0xff	-0.0033758236
16	0xff	-0.0033758236
17	0xff	-0.0033758236
18	0xfd	-0.010127471
19	0x00	0.0
20	0xfe	-0.006751647
21	0x05	0.016879119
22	0x02	0.006751647
23	0x05	0.016879119
24	0xfe	-0.006751647
25	0x01	0.0033758236
26	0x02	0.006751647
27	0x00	0.0
28	0x03	0.010127471
29	0xf8	-0.027006589
30	0xfd	-0.010127471
31	0x09	0.030382413
32	0x04	0.013503294
33	0x04	0.013503294
34	0x04	0.013503294
35	0x02	0.006751647
36	0xfb	-0.016879119
37	0x04	0.013503294
38	0xf8	-0.027006589
39	0x00	0.0
40	0x02	0.006751647
41	0x06	0.020254942
42	0x03	0.010127471
43	0xfc	-0.013503294
44	0xf9	-0.023630764
45	0xf1	-0.050637353
46	0xf7	-0.030382413
47	0xf7	-0.030382413
48	0x00	0.0
49	0x03	0.010127471
50	0x01	0.0033758236
51	0xfb	-0.016879119
52	0xfc	-0.013503294
53	0x04	0.013503294
54	0x03	0.010127471
55	0x03	0.010127471
56	0xfc	-0.013503294
57	0x04	0.013503294
58	0x06	0.020254942
59	0xfc	-0.013503294
60	0x04	0.013503294
61	0x01	0.0033758236
62	0xfd	-0.010127471
63	0xfd	-0.010127471
64	0xfb	-0.016879119
65	0xfb	-0.016879119
66	0x05	0.016879119
67	0x01	0.0033758236
68	0xfb	-0.016879119
69	0xfa	-0.020254942
70	0x00	0.0
71	0xfc	-0.013503294
72	0xff	-0.0033758236
73	0x05	0.016879119
74	0x08	0.027006589
75	0xf6	-0.033758238
76	0x0d	0.043885708
77	0xfe	-0.006751647
78	0x02	0.006751647
79	0x04	0.013503294
80	0x04	0.013503294
81	0x05	0.016879119
82	0x07	0.023630764
83	0xff	-0.0033758236
84	0x05	0.016879119
85	0xfb	-0.016879119
86	0xf4	-0.040509883
87	0xfe	-0.006751647
88	0xfe	-0.006751647
89	0xf4	-0.040509883
90	0xf9	-0.023630764
91	0xf8	-0.027006589
92	0x03	0.010127471
93	0x03	0.010127471
94	0x02	0.006751647
95	0xfa	-0.020254942
96	0xff	-0.0033758236
97	0x0b	0.03713406
98	0x02	0.006751647
99	0x02	0.006751647
100	0x08	0.027006589
101	0xfc	-0.013503294
102	0x06	0.020254942
103	0x04	0.013503294
104	0x08	0.027006589
105	0x00	0.0
106	0xfe	-0.006751647
107	0x13	0.06414065
108	0x1c	0.09452306
109	0x01	0.0033758236
110	0xf7	-0.030382413
111	0xf7	-0.030382413
112	0x09	0.030382413
113	0x03	0.010127471
114	0x03	0.010127471
115	0xfa	-0.020254942
116	0x0a	0.033758238
117	0x07	0.023630764
118	0x1e	0.10127471
119	0x04	0.013503294
120	0x0b	0.03713406
121	0xfd	-0.010127471
122	0x06	0.020254942
123	0x03	0.010127471
124	0x01	0.0033758236
125	0x05	0.016879119
126	0x03	0.010127471
127	0x14	0.067516476
128	0xfc	-0.013503294
129	0xfa	-0.020254942
130	0xfb	-0.016879119
131	0xf7	-0.030382413
132	0x03	0.010127471
133	0x09	0.030382413
134	0x02	0.006751647
135	0x04	0.013503294
136	0x05	0.016879119
137	0x03	0.010127471
138	0x02	0.006751647
139	0xfe	-0.006751647
140	0x06	0.020254942
141	0x07	0.023630764
142	0xff	-0.0033758236
143	0x04	0.013503294
144	0x02	0.006751647
145	0xf6	-0.033758238
146	0x08	0.027006589
147	0x00	0.0
148	0xfa	-0.020254942
149	0xfc	-0.013503294
150	0x03	0.010127471
151	0x00	0.0
152	0x02	0.006751647
153	0x09	0.030382413
154	0xfb	-0.016879119
155	0x06	0.020254942
156	0x07	0.023630764
157	0xfb	-0.016879119
158	0xfb	-0.016879119
159	0x07	0.023630764
160	0x07	0.023630764
161	0x02	0.006751647
162	0xfa	-0.020254942
163	0xf8	-0.027006589
164	0x02	0.006751647
165	0x03	0.010127471
166	0x02	0.006751647
167	0xfe	-0.006751647
168	0xfd	-0.010127471
169	0xfb	-0.016879119
170	0xfd	-0.010127471
171	0x01	0.0033758236
172	0x01	0.0033758236
173	0xfc	-0.013503294
174	0xfe	-0.006751647
175	0xfc	-0.013503294
176	0x09	0.030382413
177	0x0c	0.040509883
178	0x03	0.010127471
179	0x0c	0.040509883
180	0x10	0.054013178
181	0x03	0.010127471
182	0xfb	-0.016879119
183	0x02	0.006751647
184	0xff	-0.0033758236
185	0x05	0.016879119
186	0x08	0.027006589
187	0x01	0.0033758236
188	0x16	0.07426812
189	0xff	-0.0033758236
190	0xf8	-0.027006589
191	0x02	0.006751647
192	0xfc	-0.013503294
193	0xfd	-0.010127471
194	0x05	0.016879119
195	0xfc	-0.013503294
196	0x02	0.006751647
197	0x07	0.023630764
198	0x0b	0.03713406
199	0xf9	-0.023630764
200	0x0d	0.043885708
201	0x01	0.0033758236
202	0x0a	0.033758238
203	0xfd	-0.010127471
204	0x08	0.027006589
205	0x07	0.023630764
206	0x08	0.027006589
207	0x01	0.0033758236
208	0xff	-0.0033758236
209	0x09	0.030382413
210	0xfc	-0.013503294
211	0xfa	-0.020254942
212	0x0f	0.050637353
213	0x07	0.023630764
214	0x06	0.020254942
215	0x04	0.013503294
216	0x03	0.010127471
217	0x04	0.013503294
218	0x05	0.016879119
219	0x02	0.006751647
220	0x05	0.016879119
221	0xfc	-0.013503294
222	0x07	0.023630764
223	0xf4	-0.040509883
224	0x09	0.030382413
225	0xf8	-0.027006589
226	0xfc	-0.013503294
227	0x05	0.016879119
228	0x05	0.016879119
229	0x02	0.006751647
230	0x01	0.0033758236
231	0xfc	-0.013503294
232	0x06	0.020254942
233	0xfa	-0.020254942
234	0x03	0.010127471
235	0xfe	-0.006751647
236	0xfd	-0.010127471
237	0x08	0.027006589
238	0x07	0.023630764
239	0xf9	-0.023630764
240	0x05	0.016879119
241	0x03	0.010127471
242	0xfc	-0.013503294
243	0x01	0.0033758236
244	0x03	0.010127471
245	0xfd	-0.010127471
246	0x00	0.0
247	0x01	0.0033758236
248	0x03	0.010127471
249	0x00	0.0
250	0xf7	-0.030382413
251	0x07	0.023630764
252	0x04	0.013503294
253	0xfa	-0.020254942
254	0xfd	-0.010127471
255	0x0c	0.040509883

sequential/y_pred/MatMul;StatefulPartitionedCall/sequential/y_pred/MatMul i1 [2, 10] scale=0.007068091 zero_point=0
0	0x36	0.3816769
1	0xcc	-0.36754075
2	0x42	0.46649402
3	0xe0	-0.22617891
4	0xb5	-0.53010684
5	0x9a	-0.7209453
6	0xe3	-0.20497464
7	0xd7	-0.28979173
8	0xf7	-0.06361282
9	0x0b	0.077749
10	0xc4	-0.42408547
11	0x26	0.26858747
12	0xae	-0.57958347
13	0x4b	0.53010684
14	0x02	0.014136182
15	0x32	0.35340455
16	0xa0	-0.6785368
17	0x81	-0.89764756
18	0x93	-0.7704219
19	0x35	0.3746088

sequential/conv2d/Conv2D;StatefulPartitionedCall/sequential/conv2d/Conv2D i1 [32, 3, 3, 1]
0	0x95	-107
1	0x60	96
2	0x78	120
3	0xfb	-5
4	0xd9	-39
5	0xa0	-96
6	0x7f	127
7	0xfc	-4
8	0xb0	-80
9	0x2d	45
10	0x15	21
11	0xd0	-48
12	0x78	120
13	0xe6	-26
14	0x81	-127
15	0x69	105
16	0xb3	-77
17	0xe6	-26
18	0x1b	27
19	0x88	-120
20	0xd1	-47
21	0x56	86
22	0x17	23
23	0xcc	-52
24	0xf2	-14
25	0xd5	-43
26	0x7f	127
27	0x81	-127
28	0x6e	110
29	0xeb	-21
30	0x12	18
31	0x1b	27
32	0x09	9
33	0x5f	95
34	0xc2	-62
35	0xf1	-15
36	0xf6	-10
37	0x5b	91
38	0x87	-121
39	0x0c	12
40	0x3a	58
41	0x29	41
42	0x29	41
43	0x7f	127
44	0x7f	127
45	0x5c	92
46	0x21	33
47	0x32	50
48	0x7b	123
49	0x3a	58
50	0xec	-20
51	0x2a	42
52	0xd9	-39
53	0x81	-127
54	0xa7	-89
55	0xdf	-33
56	0x99	-103
57	0x1c	28
58	0x44	68
59	0xcc	-52
60	0x07	7
61	0x7f	127
62	0x16	22
63	0xc3	-61
64	0x32	50
65	0xfc	-4
66	0x2d	45
67	0xe0	-32
68	0x7f	127
69	0x78	120
70	0x78	120
71	0x56	86
72	0x4c	76
73	0xc1	-63
74	0xaf	-81
75	0x7f	127
76	0xe6	-26
77	0x07	7
78	0x78	120
79	0xc0	-64
80	0xce	-50
81	0xf8	-8
82	0x03	3
83	0x57	87
84	0x39	57
85	0x2e	46
86	0x66	102
87	0x46	70
88	0x7f	127
89	0x0f	15
90	0x81	-127
91	0x83	-125
92	0xb5	-75
93	0x2f	47
94	0xfc	-4
95	0x16	22
96	0xcb	-53
97	0xe5	-27
98	0x90	-112
99	0x75	117
100	0xbb	-69
101	0x22	34
102	0x7f	127
103	0x0d	13
104	0x4a	74
105	0x16	22
106	0x2a	42
107	0xa4	-92
108	0x70	112
109	0xc8	-56
110	0x1b	27
111	0x7a	122
112	0x90	-112
113	0xdb	-37
114	0x67	103
115	0x81	-127
116	0xbf	-65
117	0x13	19
118	0xd5	-43
119	0x81	-127
120	0x01	1
121	0x4b	75
122	0x12	18
123	0xe4	-28
124	0x42	66
125	0x21	33
126	0xc2	-62
127	0xfa	-6
128	0x7f	127
129	0xc2	-62
130	0xe1	-31
131	0x3c	60
132	0xa0	-96
133	0xbc	-68
134	0x7e	126
135	0xb6	-74
136	0xa8	-88
137	0x2f	47
138	0x7f	127
139	0x1a	26
140	0xf6	-10
141	0x72	114
142	0x6d	109
143	0xce	-50
144	0xc7	-57
145	0x2d	45
146	0x18	24
147	0xd0	-48
148	0xeb	-21
149	0x27	39
150	0x99	-103
151	0xd3	-45
152	0x7f	127
153	0x9c	-100
154	0xfc	-4
155	0x1a	26
156	0xc8	-56
157	0x34	52
158	0x81	-127
159	0x00	0
160	0xc6	-58
161	0x9f	-97
162	0xa6	-90
163	0x81	-127
164	0x00	0
165	0xd2	-46
166	0xe1	-31
167	0xdc	-36
168	0x07	7
169	0x9e	-98
170	0xdc	-36
171	0xdd	-35
172	0xf4	-12
173	0x40	64
174	0x46	70
175	0x81	-127
176	0x78	120
177	0xd4	-44
178	0xe1	-31
179	0xe7	-25
180	0xe5	-27
181	0x3f	63
182	0x4f	79
183	0x12	18
184	0xfd	-3
185	0x22	34
186	0xfe	-2
187	0xe2	-30
188	0x81	-127
189	0x24	36
190	0xea	-22
191	0xf7	-9
192	0xff	-1
193	0x01	1
194	0x58	88
195	0x7f	127
196	0x74	116
197	0xff	-1
198	0xef	-17
199	0x74	116
200	0xf1	-15
201	0x4e	78
202	0x10	16
203	0x11	17
204	0xb3	-77
205	0x81	-127
206	0xf1	-15
207	0x14	20
208	0x0f	15
209	0xd9	-39
210	0x0d	13
211	0x67	103
212	0x7f	127
213	0x9b	-101
214	0x91	-111
215	0xf2	-14
216	0x29	41
217	0x31	49
218	0x46	70
219	0x81	-127
220	0xc0	-64
221	0x2c	44
222	0xdd	-35
223	0xf1	-15
224	0x37	55
225	0xfa	-6
226	0x9f	-97
227	0x82	-126
228	0x7f	127
229	0xd4	-44
230	0xa5	-91
231	0x55	85
232	0xeb	-21
233	0xec	-20
234	0x40	64
235	0x50	80
236	0x7f	127
237	0xc0	-64
238	0x40	64
239	0x61	97
240	0xb3	-77
241	0x0f	15
242	0x57	87
243	0x7f	127
244	0x65	101
245	0x1f	31
246	0xae	-82
247	0xc1	-63
248	0xa0	-96
249	0xd2	-46
250	0x00	0
251	0x02	2
252	0x5e	94
253	0x40	64
254	0x7f	127
255	0xcf	-49

sequential/conv2d_1/Conv2D;StatefulPartitionedCall/sequential/conv2d_1/Conv2D i1 [16, 3, 3, 32]
0	0x13	19
1	0x45	69
2	0x18	24
3	0x2c	44
4	0xd8	-40
5	0xd0	-48
6	0x35	53
7	0xd0	-48
8	0x3d	61
9	0xe0	-32
10	0xd1	-47
11	0xe5	-27
12	0x4e	78
13	0xd4	-44
14	0x53	83
15	0xce	-50
16	0x64	100
17	0xdd	-35
18	0x2a	42
19	0x33	51
20	0x66	102
21	0x17	23
22	0x6f	111
23	0x62	98
24	0x36	54
25	0xcc	-52
26	0xcd	-51
27	0x54	84
28	0x32	50
29	0xd4	-44
30	0x00	0
31	0x74	116
32	0xef	-17
33	0xfd	-3
34	0x62	98
35	0xf1	-15
36	0xda	-38
37	0xc2	-62
38	0xe1	-31
39	0xbd	-67
40	0xaa	-86
41	0x02	2
42	0xcf	-49
43	0xf8	-8
44	0x32	50
45	0x43	67
46	0x6b	107
47	0xed	-19
48	0x4a	74
49	0xff	-1
50	0xd2	-46
51	0x7d	125
52	0x27	39
53	0xc0	-64
54	0x25	37
55	0x5f	95
56	0x39	57
57	0xfe	-2
58	0xdf	-33
59	0x01	1
60	0x0a	10
61	0xd9	-39
62	0x2d	45
63	0x07	7
64	0xbd	-67
65	0x0a	10
66	0xdf	-33
67	0x16	22
68	0xed	-19
69	0x08	8
70	0x0d	13
71	0x39	57
72	0xdd	-35
73	0x29	41
74	0x27	39
75	0x1e	30
76	0xdc	-36
77	0x1b	27
78	0x55	85
79	0x1b	27
80	0x72	114
81	0xde	-34
82	0x0d	13
83	0x18	24
84	0xff	-1
85	0x26	38
86	0xbe	-66
87	0x1d	29
88	0x34	52
89	0xfb	-5
90	0x1d	29
91	0xb3	-77
92	0xad	-83
93	0xea	-22
94	0x46	70
95	0xf5	-11
96	0x5b	91
97	0x36	54
98	0x40	64
99	0x2d	45
100	0x15	21
101	0xd6	-42
102	0x51	81
103	0xbc	-68
104	0xf9	-7
105	0xe5	-27
106	0xd5	-43
107	0xda	-38
108	0x25	37
109	0x17	23
110	0x51	81
111	0x1e	30
112	0x27	39
113	0x2a	42
114	0xe8	-24
115	0x11	17
116	0x55	85
117	0x1e	30
118	0x1e	30
119	0xf0	-16
120	0x14	20
121	0x5c	92
122	0xe7	-25
123	0x2b	43
124	0x0f	15
125	0x21	33
126	0x2d	45
127	0xd6	-42
128	0x28	40
129	0xa0	-96
130	0x38	56
131	0x03	3
132	0xfe	-2
133	0xdb	-37
134	0x32	50
135	0xff	-1
136	0xd8	-40
137	0x21	33
138	0xf6	-10
139	0xc7	-57
140	0xb5	-75
141	0x08	8
142	0x7f	127
143	0x0d	13
144	0x65	101
145	0xdc	-36
146	0xf5	-11
147	0x6a	106
148	0xc7	-57
149	0x09	9
150	0x0a	10
151	0xf4	-12
152	0xf3	-13
153	0xdb	-37
154	0xc9	-55
155	0xbf	-65
156	0xb5	-75
157	0xe2	-30
158	0x64	100
159	0xf4	-12
160	0x2a	42
161	0x0c	12
162	0xd3	-45
163	0x33	51
164	0x24	36
165	0x1e	30
166	0xf6	-10
167	0xda	-38
168	0xd3	-45
169	0x2c	44
170	0x2b	43
171	0x2a	42
172	0xcb	-53
173	0xe1	-31
174	0x60	96
175	0x32	50
176	0x0c	12
177	0x04	4
178	0x1c	28
179	0x07	7
180	0xcf	-49
181	0xfc	-4
182	0xf2	-14
183	0x20	32
184	0x37	55
185	0xe6	-26
186	0x2d	45
187	0xf9	-7
188	0x94	-108
189	0x10	16
190	0x4e	78
191	0xc9	-55
192	0x05	5
193	0xf9	-7
194	0x2d	45
195	0xe5	-27
196	0xd5	-43
197	0x15	21
198	0x45	69
199	0x1d	29
200	0xcc	-52
201	0xe5	-27
202	0x34	52
203	0xdb	-37
204	0xd2	-46
205	0x32	50
206	0xec	-20
207	0xfc	-4
208	0x19	25
209	0xf9	-7
210	0x1e	30
211	0x12	18
212	0x1a	26
213	0xf0	-16
214	0x17	23
215	0x03	3
216	0xc7	-57
217	0x04	4
218	0xed	-19
219	0xed	-19
220	0xf6	-10
221	0xf4	-12
222	0xd5	-43
223	0xcd	-51
224	0xeb	-21
225	0x86	-122
226	0x20	32
227	0xff	-1
228	0x02	2
229	0xd3	-45
230	0x0a	10
231	0x31	49
232	0xb5	-75
233	0xec	-20
234	0x30	48
235	0x2d	45
236	0xdd	-35
237	0xe1	-31
238	0x30	48
239	0x17	23
240	0x16	22
241	0xf2	-14
242	0x29	41
243	0x43	67
244	0x27	39
245	0x03	3
246	0xf8	-8
247	0x2b	43
248	0x24	36
249	0xaa	-86
250	0xee	-18
251	0xd4	-44
252	0xb2	-78
253	0xdb	-37
254	0x0e	14
255	0xfe	-2
