models/openMV/cough_image_v4/trained.tflite (tflite, 49120 bytes, 4 tensors)

sequential/dense/MatMul;StatefulPartitionedCall/sequential/dense/MatMul i1 [10, 4096] scale=0.0027556345 zero_point=0
0	0xfe	-0.005511269
1	0xfb	-0.013778172
2	0xfb	-0.013778172
3	0x02	0.005511269
4	0x06	0.016533807
5	0xfe	-0.005511269
6	0xf7	-0.02480071
7	0xed	-0.052357055
8	0xf5	-0.03031198
9	0xf2	-0.038578883
10	0x0e	0.038578883
11	0xff	-0.0027556345
12	0x07	0.019289441
13	0xfe	-0.005511269
14	0x08	0.022045076
15	0x0d	0.03582325
16	0x00	0.0
17	0xec	-0.05511269
18	0xf1	-0.041334517
19	0x0f	0.041334517
20	0x04	0.011022538
21	0x09	0.02480071
22	0xfd	-0.008266903
23	0xf9	-0.019289441
24	0xe5	-0.07440213
25	0xf6	-0.027556345
26	0x04	0.011022538
27	0xeb	-0.057868324
28	0x0c	0.033067614
29	0xee	-0.04960142
30	0xfb	-0.013778172
31	0x0d	0.03582325
32	0xf7	-0.02480071
33	0xea	-0.06062396
34	0x01	0.0027556345
35	0xfc	-0.011022538
36	0x02	0.005511269
37	0x14	0.05511269
38	0x00	0.0
39	0xf3	-0.03582325
40	0x04	0.011022538
41	0xf9	-0.019289441
42	0x06	0.016533807
43	0xf1	-0.041334517
44	0xfd	-0.008266903
45	0xef	-0.046845786
46	0xfe	-0.005511269
47	0xf9	-0.019289441
48	0x06	0.016533807
49	0xfa	-0.016533807
50	0xfa	-0.016533807
51	0x00	0.0
52	0xfc	-0.011022538
53	0x0d	0.03582325
54	0x15	0.057868324
55	0x00	0.0
56	0xd9	-0.107469745
57	0x02	0.005511269
58	0x04	0.011022538
59	0xe8	-0.06613523
60	0x03	0.008266903
61	0x04	0.011022538
62	0x0a	0.027556345
63	0x05	0.013778172
64	0xfa	-0.016533807
65	0xfd	-0.008266903
66	0x0e	0.038578883
67	0xf3	-0.03582325
68	0xfa	-0.016533807
69	0xf7	-0.02480071
70	0x05	0.013778172
71	0xf5	-0.03031198
72	0xfb	-0.013778172
73	0x0f	0.041334517
74	0x06	0.016533807
75	0x04	0.011022538
76	0x0a	0.027556345
77	0x06	0.016533807
78	0x07	0.019289441
79	0x04	0.011022538
80	0x28	0.11022538
81	0xfa	-0.016533807
82	0x05	0.013778172
83	0x04	0.011022538
84	0x02	0.005511269
85	0xfd	-0.008266903
86	0x01	0.0027556345
87	0xf8	-0.022045076
88	0x01	0.0027556345
89	0xfe	-0.005511269
90	0x07	0.019289441
91	0x12	0.04960142
92	0x12	0.04960142
93	0x01	0.0027556345
94	0x10	0.04409015
95	0xf5	-0.03031198
96	0xec	-0.05511269
97	0x05	0.013778172
98	0xf8	-0.022045076
99	0xfe	-0.005511269
100	0x0c	0.033067614
101	0xfd	-0.008266903
102	0xf8	-0.022045076
103	0x0c	0.033067614
104	0xe3	-0.0799134
105	0xf6	-0.027556345
106	0xf9	-0.019289441
107	0xf0	-0.04409015
108	0x0d	0.03582325
109	0x01	0.0027556345
110	0xfc	-0.011022538
111	0xff	-0.0027556345
112	0x0a	0.027556345
113	0xf8	-0.022045076
114	0x08	0.022045076
115	0x09	0.02480071
116	0x15	0.057868324
117	0x1a	0.0716465
118	0x07	0.019289441
119	0x08	0.022045076
120	0x10	0.04409015
121	0x01	0.0027556345
122	0x0b	0.03031198
123	0x06	0.016533807
124	0x02	0.005511269
125	0xf7	-0.02480071
126	0xf6	-0.027556345
127	0x0a	0.027556345
128	0x00	0.0
129	0xf6	-0.027556345
130	0xf6	-0.027556345
131	0xf7	-0.02480071
132	0x0f	0.041334517
133	0x18	0.06613523
134	0x09	0.02480071
135	0x03	0.008266903
136	0x02	0.005511269
137	0x0d	0.03582325
138	0x0f	0.041334517
139	0xf8	-0.022045076
140	0x0a	0.027556345
141	0x0d	0.03582325
142	0x06	0.016533807
143	0x15	0.057868324
144	0xff	-0.0027556345
145	0xe1	-0.08542467
146	0x07	0.019289441
147	0x06	0.016533807
148	0xff	-0.0027556345
149	0xf6	-0.027556345
150	0x05	0.013778172
151	0xe5	-0.07440213
152	0x07	0.019289441
153	0xfd	-0.008266903
154	0x00	0.0
155	0x14	0.05511269
156	0x11	0.046845786
157	0xef	-0.046845786
158	0xf8	-0.022045076
159	0x09	0.02480071
160	0x00	0.0
161	0xf9	-0.019289441
162	0xf1	-0.041334517
163	0x0b	0.03031198
164	0x1b	0.07440213
165	0xfd	-0.008266903
166	0xff	-0.0027556345
167	0xfc	-0.011022538
168	0xeb	-0.057868324
169	0xfe	-0.005511269
170	0xfc	-0.011022538
171	0xfa	-0.016533807
172	0xfd	-0.008266903
173	0xf8	-0.022045076
174	0x04	0.011022538
175	0xf9	-0.019289441
176	0x08	0.022045076
177	0x1e	0.082669035
178	0x0f	0.041334517
179	0x0e	0.038578883
180	0x06	0.016533807
181	0x08	0.022045076
182	0xf9	-0.019289441
183	0x01	0.0027556345
184	0xf2	-0.038578883
185	0x12	0.04960142
186	0x13	0.052357055
187	0x04	0.011022538
188	0x09	0.02480071
189	0x12	0.04960142
190	0x03	0.008266903
191	0x00	0.0
192	0x02	0.005511269
193	0x03	0.008266903
194	0xf8	-0.022045076
195	0xff	-0.0027556345
196	0x05	0.013778172
197	0x07	0.019289441
198	0x07	0.019289441
199	0xef	-0.046845786
200	0x16	0.06062396
201	0xff	-0.0027556345
202	0x0b	0.03031198
203	0x10	0.04409015
204	0xf5	-0.03031198
205	0x0b	0.03031198
206	0x0b	0.03031198
207	0xfe	-0.005511269
208	0xf2	-0.038578883
209	0x04	0.011022538
210	0xf1	-0.041334517
211	0xfc	-0.011022538
212	0x0c	0.033067614
213	0x17	0.06337959
214	0x07	0.019289441
215	0xec	-0.05511269
216	0x03	0.008266903
217	0xf5	-0.03031198
218	0x0d	0.03582325
219	0x0d	0.03582325
220	0x05	0.013778172
221	0xf6	-0.027556345
222	0x12	0.04960142
223	0xf7	-0.02480071
224	0x0b	0.03031198
225	0xe4	-0.077157766
226	0xed	-0.052357055
227	0x0d	0.03582325
228	0x0c	0.033067614
229	0x02	0.005511269
230	0x07	0.019289441
231	0xe4	-0.077157766
232	0xfb	-0.013778172
233	0xf2	-0.038578883
234	0xfa	-0.016533807
235	0xff	-0.0027556345
236	0xfb	-0.013778172
237	0x06	0.016533807
238	0x0c	0.033067614
239	0xf7	-0.02480071
240	0x01	0.0027556345
241	0x0a	0.027556345
242	0xf7	-0.02480071
243	0x11	0.046845786
244	0x09	0.02480071
245	0xfc	-0.011022538
246	0x01	0.0027556345
247	0x0d	0.03582325
248	0xf5	-0.03031198
249	0x00	0.0
250	0xec	-0.05511269
251	0xf6	-0.027556345
252	0x00	0.0
253	0xfa	-0.016533807
254	0xf6	-0.027556345
255	0x0a	0.027556345

sequential/y_pred/MatMul;StatefulPartitionedCall/sequential/y_pred/MatMul i1 [2, 10] scale=0.0069705015 zero_point=0
0	0x41	0.4530826
1	0xce	-0.34852508
2	0x5a	0.62734514
3	0xdd	-0.24396755
4	0xa1	-0.66219765
5	0xa7	-0.6203746
6	0xcd	-0.35549557
7	0xcb	-0.3694366
8	0x08	0.055764012
9	0x0a	0.06970502
10	0xb9	-0.49490562
11	0x24	0.25093806
12	0x95	-0.74584365
13	0x4e	0.54369915
14	0x15	0.14638053
15	0x25	0.25790855
16	0xb4	-0.5297581
17	0x8a	-0.8225192
18	0x81	-0.88525367
19	0x36	0.3764071

sequential/conv2d/Conv2D;StatefulPartitionedCall/sequential/conv2d/Conv2D i1 [16, 3, 3, 1]
0	0x81	-127
1	0xa4	-92
2	0x6a	106
3	0x14	20
4	0x48	72
5	0x06	6
6	0x14	20
7	0xf8	-8
8	0xea	-22
9	0x2b	43
10	0xbc	-68
11	0xff	-1
12	0x27	39
13	0xe1	-31
14	0xfe	-2
15	0x7f	127
16	0xdc	-36
17	0xe2	-30
18	0x35	53
19	0xa5	-91
20	0x81	-127
21	0xd3	-45
22	0xe2	-30
23	0x07	7
24	0x64	100
25	0x15	21
26	0x54	84
27	0x81	-127
28	0xdb	-37
29	0x61	97
30	0xd4	-44
31	0xe2	-30
32	0x29	41
33	0x01	1
34	0x48	72
35	0x2e	46
36	0xd4	-44
37	0xac	-84
38	0x7f	127
39	0xeb	-21
40	0x87	-121
41	0x3f	63
42	0xf6	-10
43	0xf6	-10
44	0x39	57
45	0x4f	79
46	0x34	52
47	0x07	7
48	0x02	2
49	0x52	82
50	0xf8	-8
51	0x7f	127
52	0xe3	-29
53	0x22	34
54	0xad	-83
55	0x81	-127
56	0xdc	-36
57	0x73	115
58	0xb6	-74
59	0xdd	-35
60	0x2f	47
61	0x59	89
62	0x58	88
63	0xe5	-27
64	0x09	9
65	0x7d	125
66	0xea	-22
67	0xef	-17
68	0x81	-127
69	0x52	82
70	0x04	4
71	0x94	-108
72	0x41	65
73	0x3d	61
74	0x8f	-113
75	0x5b	91
76	0xb5	-75
77	0x24	36
78	0x68	104
79	0x81	-127
80	0xcc	-52
81	0xf0	-16
82	0xc9	-55
83	0x04	4
84	0x81	-127
85	0x6a	106
86	0x98	-104
87	0x40	64
88	0x7a	122
89	0x36	54
90	0xa0	-96
91	0x7f	127
92	0xad	-83
93	0x51	81
94	0xdf	-33
95	0x60	96
96	0x1d	29
97	0x96	-106
98	0xf6	-10
99	0x6b	107
100	0x7f	127
101	0xc1	-63
102	0x5a	90
103	0x42	66
104	0x10	16
105	0x5d	93
106	0xd0	-48
107	0xf7	-9
108	0x43	67
109	0x3c	60
110	0xcd	-51
111	0x26	38
112	0x1c	28
113	0x46	70
114	0x1f	31
115	0x85	-123
116	0x81	-127
117	0xf7	-9
118	0x12	18
119	0x15	21
120	0xa7	-89
121	0x86	-122
122	0x30	48
123	0xd7	-41
124	0x12	18
125	0x7f	127
126	0xa3	-93
127	0x81	-127
128	0x00	0
129	0x3c	60
130	0x66	102
131	0x51	81
132	0xf0	-16
133	0x29	41
134	0xe5	-27
135	0xb5	-75
136	0x40	64
137	0xaf	-81
138	0x30	48
139	0x45	69
140	0xe7	-25
141	0x7f	127
142	0x34	52
143	0x22	34

sequential/conv2d_1/Conv2D;StatefulPartitionedCall/sequential/conv2d_1/Conv2D i1 [16, 3, 3, 16]
0	0xf5	-11
1	0xf6	-10
2	0xf6	-10
3	0x48	72
4	0x15	21
5	0xce	-50
6	0x29	41
7	0xd8	-40
8	0x45	69
9	0xe8	-24
10	0xdd	-35
11	0xe4	-28
12	0xf8	-8
13	0xfa	-6
14	0x13	19
15	0xdb	-37
16	0x1d	29
17	0xe2	-30
18	0xf1	-15
19	0x2f	47
20	0x03	3
21	0x29	41
22	0x08	8
23	0xf1	-15
24	0x0f	15
25	0x09	9
26	0xd1	-47
27	0x25	37
28	0xf4	-12
29	0xe7	-25
30	0xe1	-31
31	0x2b	43
32	0xe9	-23
33	0x14	20
34	0x2f	47
35	0xeb	-21
36	0xd8	-40
37	0xe7	-25
38	0xe3	-29
39	0xc9	-55
40	0xfd	-3
41	0x05	5
42	0xd2	-46
43	0x12	18
44	0x2f	47
45	0x05	5
46	0xf7	-9
47	0x0d	13
48	0x24	36
49	0xf8	-8
50	0xf0	-16
51	0x60	96
52	0x6d	109
53	0xcc	-52
54	0x14	20
55	0x30	48
56	0x3b	59
57	0xfe	-2
58	0x09	9
59	0xef	-17
60	0x21	33
61	0x4b	75
62	0xc1	-63
63	0xb9	-71
64	0xd0	-48
65	0xfe	-2
66	0xb1	-79
67	0x15	21
68	0xea	-22
69	0x11	17
70	0xf0	-16
71	0x34	52
72	0xf4	-12
73	0x42	66
74	0x16	22
75	0x22	34
76	0x11	17
77	0x16	22
78	0xd5	-43
79	0x18	24
80	0x01	1
81	0xef	-17
82	0x19	25
83	0xf6	-10
84	0x22	34
85	0x17	23
86	0xd8	-40
87	0x1c	28
88	0x4b	75
89	0xda	-38
90	0x1e	30
91	0xdc	-36
92	0x07	7
93	0x0a	10
94	0xbb	-69
95	0xfc	-4
96	0x7f	127
97	0xe7	-25
98	0x16	22
99	0x7e	126
100	0x72	114
101	0xea	-22
102	0x4d	77
103	0xc0	-64
104	0xe7	-25
105	0x11	17
106	0xec	-20
107	0xdd	-35
108	0xd5	-43
109	0x25	37
110	0x52	82
111	0x1c	28
112	0x20	32
113	0x2b	43
114	0xfc	-4
115	0x3a	58
116	0x17	23
117	0x2d	45
118	0x1c	28
119	0xe5	-27
120	0x2b	43
121	0x26	38
122	0x10	16
123	0x1c	28
124	0x1e	30
125	0x12	18
126	0x2d	45
127	0xf0	-16
128	0x43	67
129	0xe3	-29
130	0x3e	62
131	0x0b	11
132	0x27	39
133	0x0b	11
134	0x58	88
135	0xf3	-13
136	0x33	51
137	0x38	56
138	0x15	21
139	0xe9	-23
140	0xf7	-9
141	0x0b	11
142	0x3f	63
143	0x2f	47
144	0xe8	-24
145	0x33	51
146	0xcf	-49
147	0xce	-50
148	0x04	4
149	0x00	0
150	0x0b	11
151	0x32	50
152	0x23	35
153	0xe8	-24
154	0xe8	-24
155	0x20	32
156	0x32	50
157	0x03	3
158	0xf9	-7
159	0x05	5
160	0x37	55
161	0x39	57
162	0x48	72
163	0x2b	43
164	0x65	101
165	0xf1	-15
166	0xf8	-8
167	0x2a	42
168	0x7f	127
169	0xa7	-89
170	0x1d	29
171	0x29	41
172	0x59	89
173	0x39	57
174	0x08	8
175	0xfc	-4
176	0xfc	-4
177	0x1e	30
178	0x44	68
179	0xf9	-7
180	0x1b	27
181	0xf2	-14
182	0xe5	-27
183	0xfe	-2
184	0x1a	26
185	0xdb	-37
186	0x29	41
187	0xf6	-10
188	0x29	41
189	0xff	-1
190	0x2c	44
191	0x15	21
192	0x2a	42
193	0xf4	-12
194	0x48	72
195	0x11	17
196	0xe0	-32
197	0x05	5
198	0x11	17
199	0x0a	10
200	0x22	34
201	0x20	32
202	0xfd	-3
203	0xfe	-2
204	0x25	37
205	0xee	-18
206	0xe9	-23
207	0x13	19
208	0x0d	13
209	0x16	22
210	0x70	112
211	0x21	33
212	0x59	89
213	0xd6	-42
214	0x70	112
215	0x28	40
216	0x21	33
217	0xf9	-7
218	0x01	1
219	0xdd	-35
220	0x09	9
221	0x41	65
222	0x37	55
223	0xed	-19
224	0x49	73
225	0x25	37
226	0x12	18
227	0xea	-22
228	0x3c	60
229	0xd6	-42
230	0x65	101
231	0x5c	92
232	0x1d	29
233	0x00	0
234	0x30	48
235	0xde	-34
236	0xd3	-45
237	0xfd	-3
238	0x02	2
239	0xe4	-28
240	0xee	-18
241	0xe9	-23
242	0xf4	-12
243	0xcd	-51
244	0x34	52
245	0xea	-22
246	0xef	-17
247	0xf1	-15
248	0x26	38
249	0x06	6
250	0x25	37
251	0xde	-34
252	0x3e	62
253	0x2c	44
254	0x2b	43
255	0xe5	-27
