models/openMV/fall_detection_v1/trained.tflite (tflite, 15648 bytes, 3 tensors)

sequential/y_pred/MatMul;StatefulPartitionedCall/sequential/y_pred/MatMul i1 [2, 4096] scale=0.0006060499 zero_point=0
000000 f8 bb 01 cf 07 d5 18 1e f6 19 ef 18 d7 11 0b f4
       -0.004848399 -0.04181744 0.0006060499 -0.029696446 0.0042423494 -0.026060145 0.014545198 0.018181497 -0.0060604988 0.015151247 -0.010302848 0.014545198 -0.024848046 0.010302848 0.006666549 -0.007272599
000010 0d 12 17 d8 0a 42 f7 0e cf bf 37 d3 3c 29 03 30
       0.007878649 0.010908898 0.013939148 -0.024241995 0.0060604988 0.039999295 -0.005454449 0.008484699 -0.029696446 -0.039393242 0.033332743 -0.027272245 0.036362994 0.024848046 0.0018181497 0.029090395
000020 23 28 e8 cf 0d c1 36 1d d1 05 01 14 d4 cf 3c 07
       0.021211747 0.024241995 -0.014545198 -0.029696446 0.007878649 -0.038181145 0.032726694 0.017575447 -0.028484344 0.0030302494 0.0006060499 0.0121209975 -0.026666196 -0.029696446 0.036362994 0.0042423494
000030 0a c5 39 07 3c 26 db 01 20 c6 2e 17 12 de 0c 2b
       0.0060604988 -0.035756946 0.034544844 0.0042423494 0.036362994 0.023029895 -0.022423847 0.0006060499 0.019393597 -0.035150893 0.027878296 0.013939148 0.010908898 -0.020605696 0.007272599 0.026060145
000040 01 f3 0a c8 29 c8 03 21 e1 b9 c6 1d f0 21 f1 d6
       0.0006060499 -0.007878649 0.0060604988 -0.033938795 0.024848046 -0.033938795 0.0018181497 0.019999648 -0.018787546 -0.043029543 -0.035150893 0.017575447 -0.009696798 0.019999648 -0.009090749 -0.025454096
000050 ef f9 0e e7 d0 f1 25 db fc c9 c6 e2 c7 fb f2 40
       -0.010302848 -0.0042423494 0.008484699 -0.015151247 -0.029090395 -0.009090749 0.022423847 -0.022423847 -0.0024241996 -0.033332743 -0.035150893 -0.018181497 -0.034544844 -0.0030302494 -0.008484699 0.038787194
000060 19 15 37 09 00 c0 3e eb 03 11 09 12 e0 09 e1 e3
       0.015151247 0.012727048 0.033332743 0.005454449 0.0 -0.038787194 0.037575092 -0.012727048 0.0018181497 0.010302848 0.005454449 0.010908898 -0.019393597 0.005454449 -0.018787546 -0.017575447
000070 2f 03 df 19 d1 c4 e6 e9 0f d8 01 23 05 14 39 20
       0.028484344 0.0018181497 -0.019999648 0.015151247 -0.028484344 -0.036362994 -0.015757298 -0.013939148 0.009090749 -0.024241995 0.0006060499 0.021211747 0.0030302494 0.0121209975 0.034544844 0.019393597
000080 0a de 09 10 24 f8 22 43 2c f7 2e 05 1d 19 10 18
       0.0060604988 -0.020605696 0.005454449 0.009696798 0.021817796 -0.004848399 0.020605696 0.040605344 0.026666196 -0.005454449 0.027878296 0.0030302494 0.017575447 0.015151247 0.009696798 0.014545198
000090 cd c7 33 16 f2 08 db 21 14 f8 03 37 f5 11 37 d1
       -0.030908545 -0.034544844 0.030908545 0.013333098 -0.008484699 0.004848399 -0.022423847 0.019999648 0.0121209975 -0.004848399 0.0018181497 0.033332743 -0.006666549 0.010302848 0.033332743 -0.028484344
0000a0 ee 10 0d 0d dc c6 ca 3e ca f6 0b f7 c4 21 34 d4
       -0.010908898 0.009696798 0.007878649 0.007878649 -0.021817796 -0.035150893 -0.032726694 0.037575092 -0.032726694 -0.0060604988 0.006666549 -0.005454449 -0.036362994 0.019999648 0.031514596 -0.026666196
0000b0 0f 22 e4 f7 c8 dc 2a 01 db 30 e8 0a c0 03 ff 14
       0.009090749 0.020605696 -0.016969398 -0.005454449 -0.033938795 -0.021817796 0.025454096 0.0006060499 -0.022423847 0.029090395 -0.014545198 0.0060604988 -0.038787194 0.0018181497 -0.0006060499 0.0121209975
0000c0 b9 e7 d7 d5 11 0e 26 21 2c f5 df fe de fc c6 ff
       -0.043029543 -0.015151247 -0.024848046 -0.026060145 0.010302848 0.008484699 0.023029895 0.019999648 0.026666196 -0.006666549 -0.019999648 -0.0012120998 -0.020605696 -0.0024241996 -0.035150893 -0.0006060499
0000d0 31 c6 20 17 b7 e2 ea 30 d2 fa f6 c1 e0 26 05 2c
       0.029696446 -0.035150893 0.019393597 0.013939148 -0.044241644 -0.018181497 -0.013333098 0.029090395 -0.027878296 -0.0036362994 -0.0060604988 -0.038181145 -0.019393597 0.023029895 0.0030302494 0.026666196
0000e0 18 c8 1b f0 1f 15 fa 05 16 33 c8 de eb d4 11 2f
       0.014545198 -0.033938795 0.016363347 -0.009696798 0.018787546 0.012727048 -0.0036362994 0.0030302494 0.013333098 0.030908545 -0.033938795 -0.020605696 -0.012727048 -0.026666196 0.010302848 0.028484344
0000f0 e3 f0 e1 fd ca 0a d6 cc d3 26 f2 d3 dc 23 07 e6
       -0.017575447 -0.009696798 -0.018787546 -0.0018181497 -0.032726694 0.0060604988 -0.025454096 -0.031514596 -0.027272245 0.023029895 -0.008484699 -0.027272245 -0.021817796 0.021211747 0.0042423494 -0.015757298

sequential/conv2d/Conv2D;StatefulPartitionedCall/sequential/conv2d/Conv2D i1 [16, 3, 3, 1]
000000 81 82 7f 48 6f e7 0b d7 d6 1f d5 2b 1b f8 29 7f
       -127 -126 127 72 111 -25 11 -41 -42 31 -43 43 27 -8 41 127
000010 f0 06 10 af 82 81 dc 0e 61 e2 3d a3 f3 7f 0b fa
       -16 6 16 -81 -126 -127 -36 14 97 -30 61 -93 -13 127 11 -6
000020 32 27 73 31 01 a8 7a 15 81 2f 0b fe 26 4d 2e 1b
       50 39 115 49 1 -88 122 21 -127 47 11 -2 38 77 46 27
000030 f4 4c 11 7f e5 4b b0 92 ee 7f b4 d9 25 38 43 e1
       -12 76 17 127 -27 75 -80 -110 -18 127 -76 -39 37 56 67 -31
000040 ea 6f ea fe 81 61 1c ae 31 50 b3 5a bb 52 7f 91
       -22 111 -22 -2 -127 97 28 -82 49 80 -77 90 -69 82 127 -111
000050 ef fd af 00 81 6a 86 40 67 1e 9c 70 a3 60 c1 78
       -17 -3 -81 0 -127 106 -122 64 103 30 -100 112 -93 96 -63 120
000060 21 81 fb 70 7f ba 61 39 1f 7a c5 14 4f 4e a5 1c
       33 -127 -5 112 127 -70 97 57 31 122 -59 20 79 78 -91 28
000070 20 7e 4d 81 85 0e 1c e7 c5 81 14 f5 20 7b a1 84
       32 126 77 -127 -123 14 28 -25 -59 -127 20 -11 32 123 -95 -124
000080 f1 39 7f 4a ca 2a df bd 40 ac 3a 3c e2 7f 1a 14
       -15 57 127 74 -54 42 -33 -67 64 -84 58 60 -30 127 26 20

sequential/conv2d_1/Conv2D;StatefulPartitionedCall/sequential/conv2d_1/Conv2D i1 [16, 3, 3, 16]
000000 bf f5 d1 7f ee bd 67 c8 70 05 ac 01 f7 b5 41 e0
       -65 -11 -47 127 -18 -67 103 -56 112 5 -84 1 -9 -75 65 -32
000010 38 d6 56 60 21 77 49 15 7b ee cc 72 16 d0 c4 71
       56 -42 86 96 33 119 73 21 123 -18 -52 114 22 -48 -60 113
000020 f0 23 6b 19 dd e5 d0 a0 c3 37 b0 40 6f 4f 20 39
       -16 35 107 25 -35 -27 -48 -96 -61 55 -80 64 111 79 32 57
000030 21 12 96 7c 44 bf 04 43 3a 0c da 13 15 d4 ab b3
       33 18 -106 124 68 -65 4 67 58 12 -38 19 21 -44 -85 -77
000040 82 13 b1 21 cf 3e 01 5c c8 4c 66 59 ec f7 b6 46
       -126 19 -79 33 -49 62 1 92 -56 76 102 89 -20 -9 -74 70
000050 2c d1 2b 18 19 59 aa 44 42 a4 1d b5 c0 b7 b0 26
       44 -47 43 24 25 89 -86 68 66 -92 29 -75 -64 -73 -80 38
000060 5c d1 d6 78 52 ef 3a 9c cd fb b3 e3 ba d9 50 52
       92 -47 -42 120 82 -17 58 -100 -51 -5 -77 -29 -70 -39 80 82
000070 dc 63 e1 4d 7e 69 00 01 40 06 0e 3c 32 59 18 af
       -36 99 -31 77 126 105 0 1 64 6 14 60 50 89 24 -81
000080 0a a2 3f dc fd 23 5b 0b 1a 49 f1 d2 bb f3 36 56
       10 -94 63 -36 -3 35 91 11 26 73 -15 -46 -69 -13 54 86
000090 d8 51 c0 c3 14 df 47 3f b0 e4 f1 10 cf 3b 03 f0
       -40 81 -64 -61 20 -33 71 63 -80 -28 -15 16 -49 59 3 -16
0000a0 4f 5e 2c 5f 51 ee d2 2a 68 b9 0e 4e 48 34 1e 28
       79 94 44 95 81 -18 -46 42 104 -71 14 78 72 52 30 40
0000b0 e7 41 7f 0a 29 fc c7 e3 ea fb 78 f7 fc d4 60 61
       -25 65 127 10 41 -4 -57 -29 -22 -5 120 -9 -4 -44 96 97
0000c0 73 ed 51 4d c1 04 cc e2 d5 4c f2 ea 11 be d1 15
       115 -19 81 77 -63 4 -52 -30 -43 76 -14 -22 17 -66 -47 21
0000d0 df 27 12 35 50 d1 70 0e fd 48 3e d8 2a 57 59 fd
       -33 39 18 53 80 -47 112 14 -3 72 62 -40 42 87 89 -3
0000e0 6b 58 be cf 53 d2 63 67 1c 36 47 e4 ba b3 e7 f2
       107 88 -66 -49 83 -46 99 103 28 54 71 -28 -70 -77 -25 -14
0000f0 c7 08 0b cc 38 ec 1a cd 1b 27 1b c3 30 58 4b ed
       -57 8 11 -52 56 -20 26 -51 27 39 27 -61 48 88 75 -19
