models/openMV/gloves_detection-openmv-v1_256/trained.tflite (tflite, 29408 bytes, 3 tensors)

sequential/y_pred/MatMul;StatefulPartitionedCall/sequential/y_pred/MatMul i1 [3, 6144] scale=0.0018976809 zero_point=0
0	0xfa	-0.011386085
1	0xf2	-0.026567534
2	0xf3	-0.024669852
3	0x0b	0.020874491
4	0x09	0.017079128
5	0xff	-0.0018976809
6	0x04	0.0075907237
7	0x05	0.009488405
8	0xf6	-0.01897681
9	0xfd	-0.0056930427
10	0xfb	-0.009488405
11	0x07	0.013283767
12	0x04	0.0075907237
13	0x0e	0.026567534
14	0x0e	0.026567534
15	0xfa	-0.011386085
16	0xf8	-0.015181447
17	0x05	0.009488405
18	0xf6	-0.01897681
19	0xf5	-0.020874491
20	0xff	-0.0018976809
21	0x04	0.0075907237
22	0x0d	0.024669852
23	0x0e	0.026567534
24	0x01	0.0018976809
25	0xff	-0.0018976809
26	0x06	0.011386085
27	0xf9	-0.013283767
28	0xfe	-0.0037953618
29	0x08	0.015181447
30	0xf2	-0.026567534
31	0xfb	-0.009488405
32	0x03	0.0056930427
33	0x0f	0.028465213
34	0x04	0.0075907237
35	0xf1	-0.028465213
36	0xf7	-0.017079128
37	0x0c	0.02277217
38	0xf1	-0.028465213
39	0x07	0.013283767
40	0x05	0.009488405
41	0xef	-0.032260574
42	0x0c	0.02277217
43	0xf7	-0.017079128
44	0x00	0.0
45	0xee	-0.034158256
46	0xf3	-0.024669852
47	0x0d	0.024669852
48	0xf8	-0.015181447
49	0xf7	-0.017079128
50	0x08	0.015181447
51	0xfd	-0.0056930427
52	0xfc	-0.0075907237
53	0x06	0.011386085
54	0x03	0.0056930427
55	0x0e	0.026567534
56	0xf4	-0.02277217
57	0xf6	-0.01897681
58	0xf6	-0.01897681
59	0xe6	-0.049339704
60	0xf1	-0.028465213
61	0xf6	-0.01897681
62	0x09	0.017079128
63	0xff	-0.0018976809
64	0x07	0.013283767
65	0x0c	0.02277217
66	0x05	0.009488405
67	0x01	0.0018976809
68	0x10	0.030362895
69	0x07	0.013283767
70	0xfb	-0.009488405
71	0xfe	-0.0037953618
72	0xf9	-0.013283767
73	0xf2	-0.026567534
74	0xeb	-0.0398513
75	0xf5	-0.020874491
76	0xf8	-0.015181447
77	0xf7	-0.017079128
78	0xf9	-0.013283767
79	0x03	0.0056930427
80	0x06	0.011386085
81	0x09	0.017079128
82	0x0c	0.02277217
83	0xfa	-0.011386085
84	0x11	0.032260574
85	0xf2	-0.026567534
86	0xed	-0.036055937
87	0x02	0.0037953618
88	0x0a	0.01897681
89	0xf6	-0.01897681
90	0x01	0.0018976809
91	0x09	0.017079128
92	0x0f	0.028465213
93	0x02	0.0037953618
94	0x06	0.011386085
95	0xf3	-0.024669852
96	0xf8	-0.015181447
97	0xfd	-0.0056930427
98	0x05	0.009488405
99	0x0f	0.028465213
100	0xf3	-0.024669852
101	0xf1	-0.028465213
102	0xe9	-0.04364666
103	0x0c	0.02277217
104	0xff	-0.0018976809
105	0xf4	-0.02277217
106	0xda	-0.072111875
107	0xfc	-0.0075907237
108	0x07	0.013283767
109	0x00	0.0
110	0xef	-0.032260574
111	0x06	0.011386085
112	0xf3	-0.024669852
113	0xef	-0.032260574
114	0xf9	-0.013283767
115	0xf8	-0.015181447
116	0x0f	0.028465213
117	0xfa	-0.011386085
118	0xfc	-0.0075907237
119	0x07	0.013283767
120	0xf5	-0.020874491
121	0xf4	-0.02277217
122	0xe1	-0.058828108
123	0xe8	-0.04554434
124	0xfc	-0.0075907237
125	0x07	0.013283767
126	0xf8	-0.015181447
127	0xeb	-0.0398513
128	0xee	-0.034158256
129	0x04	0.0075907237
130	0xf6	-0.01897681
131	0x0d	0.024669852
132	0x0a	0.01897681
133	0xf8	-0.015181447
134	0xee	-0.034158256
135	0x0c	0.02277217
136	0xfc	-0.0075907237
137	0xf8	-0.015181447
138	0xed	-0.036055937
139	0xfb	-0.009488405
140	0x0d	0.024669852
141	0xef	-0.032260574
142	0xfb	-0.009488405
143	0xf5	-0.020874491
144	0xf4	-0.02277217
145	0x08	0.015181447
146	0xf1	-0.028465213
147	0x0e	0.026567534
148	0x06	0.011386085
149	0xf4	-0.02277217
150	0xe6	-0.049339704
151	0xfe	-0.0037953618
152	0x11	0.032260574
153	0x05	0.009488405
154	0xf0	-0.030362895
155	0xf7	-0.017079128
156	0xf7	-0.017079128
157	0xef	-0.032260574
158	0xf6	-0.01897681
159	0xfc	-0.0075907237
160	0xfe	-0.0037953618
161	0x08	0.015181447
162	0x03	0.0056930427
163	0xf4	-0.02277217
164	0xfb	-0.009488405
165	0x0c	0.02277217
166	0x01	0.0018976809
167	0x07	0.013283767
168	0xfd	-0.0056930427
169	0xf7	-0.017079128
170	0xf2	-0.026567534
171	0x0a	0.01897681
172	0x07	0.013283767
173	0xf8	-0.015181447
174	0x0f	0.028465213
175	0xf8	-0.015181447
176	0xf4	-0.02277217
177	0xf9	-0.013283767
178	0xf4	-0.02277217
179	0x0d	0.024669852
180	0x14	0.03795362
181	0x03	0.0056930427
182	0x01	0.0018976809
183	0xf8	-0.015181447
184	0xf4	-0.02277217
185	0xee	-0.034158256
186	0xfc	-0.0075907237
187	0xf2	-0.026567534
188	0x0a	0.01897681
189	0xf2	-0.026567534
190	0x03	0.0056930427
191	0xfc	-0.0075907237
192	0xfc	-0.0075907237
193	0xfc	-0.0075907237
194	0x08	0.015181447
195	0xfe	-0.0037953618
196	0xf6	-0.01897681
197	0x11	0.032260574
198	0x0a	0.01897681
199	0x0e	0.026567534
200	0x01	0.0018976809
201	0xf8	-0.015181447
202	0xfe	-0.0037953618
203	0xf1	-0.028465213
204	0xf3	-0.024669852
205	0xf5	-0.020874491
206	0xf7	-0.017079128
207	0x05	0.009488405
208	0xf6	-0.01897681
209	0xf1	-0.028465213
210	0x03	0.0056930427
211	0x11	0.032260574
212	0xf0	-0.030362895
213	0x04	0.0075907237
214	0x07	0.013283767
215	0x01	0.0018976809
216	0x05	0.009488405
217	0x0b	0.020874491
218	0xfc	-0.0075907237
219	0xea	-0.041748982
220	0x06	0.011386085
221	0xf1	-0.028465213
222	0x0c	0.02277217
223	0xef	-0.032260574
224	0xf4	-0.02277217
225	0xf3	-0.024669852
226	0x0f	0.028465213
227	0x02	0.0037953618
228	0x03	0.0056930427
229	0x08	0.015181447
230	0xed	-0.036055937
231	0x0b	0.020874491
232	0xfe	-0.0037953618
233	0xf2	-0.026567534
234	0xeb	-0.0398513
235	0x0f	0.028465213
236	0x0e	0.026567534
237	0xf7	-0.017079128
238	0xf4	-0.02277217
239	0xfc	-0.0075907237
240	0xff	-0.0018976809
241	0xf4	-0.02277217
242	0x07	0.013283767
243	0xfc	-0.0075907237
244	0x04	0.0075907237
245	0xfa	-0.011386085
246	0xe7	-0.047442023
247	0xf0	-0.030362895
248	0x03	0.0056930427
249	0xfc	-0.0075907237
250	0xde	-0.06452115
251	0xf9	-0.013283767
252	0xf9	-0.013283767
253	0x03	0.0056930427
254	0xfb	-0.009488405
255	0xff	-0.0018976809

sequential/conv2d/Conv2D;StatefulPartitionedCall/sequential/conv2d/Conv2D i1 [32, 3, 3, 3]
0	0x9e	-98
1	0x4b	75
2	0x4c	76
3	0xec	-20
4	0xd3	-45
5	0xa4	-92
6	0x5f	95
7	0xfe	-2
8	0xc1	-63
9	0x81	-127
10	0x67	103
11	0xfe	-2
12	0x09	9
13	0xc4	-60
14	0xed	-19
15	0xb1	-79
16	0xee	-18
17	0x33	51
18	0x72	114
19	0xdc	-36
20	0x22	34
21	0x5c	92
22	0xd6	-42
23	0xff	-1
24	0x97	-105
25	0x50	80
26	0x23	35
27	0x26	38
28	0x29	41
29	0xf4	-12
30	0x7f	127
31	0x04	4
32	0xa9	-87
33	0x71	113
34	0xc7	-57
35	0x25	37
36	0x1e	30
37	0xdf	-33
38	0xca	-54
39	0x7b	123
40	0xa1	-95
41	0x01	1
42	0x3e	62
43	0x6f	111
44	0xdd	-35
45	0x5a	90
46	0xaf	-81
47	0x96	-106
48	0x4f	79
49	0x58	88
50	0x76	118
51	0x10	16
52	0xd2	-46
53	0x03	3
54	0xf4	-12
55	0x81	-127
56	0xca	-54
57	0x42	66
58	0x22	34
59	0xb9	-71
60	0xd5	-43
61	0xa9	-87
62	0x53	83
63	0xe9	-23
64	0xac	-84
65	0xc7	-57
66	0xd1	-47
67	0x44	68
68	0x45	69
69	0xc8	-56
70	0x03	3
71	0x12	18
72	0x13	19
73	0x6e	110
74	0xa3	-93
75	0x49	73
76	0xd3	-45
77	0x36	54
78	0xb7	-73
79	0x60	96
80	0xac	-84
81	0x81	-127
82	0x6b	107
83	0xd5	-43
84	0x17	23
85	0x16	22
86	0x07	7
87	0x62	98
88	0xb5	-75
89	0xee	-18
90	0xb0	-80
91	0xd2	-46
92	0x46	70
93	0xda	-38
94	0xd0	-48
95	0xef	-17
96	0xec	-20
97	0xd3	-45
98	0x1b	27
99	0x89	-119
100	0x85	-123
101	0xf9	-7
102	0x46	70
103	0x1c	28
104	0x57	87
105	0x61	97
106	0xff	-1
107	0xae	-82
108	0xf7	-9
109	0x6b	107
110	0x98	-104
111	0x00	0
112	0x24	36
113	0x21	33
114	0x1b	27
115	0x76	118
116	0x74	116
117	0x61	97
118	0xca	-54
119	0x45	69
120	0xf6	-10
121	0x98	-104
122	0x77	119
123	0xea	-22
124	0x33	51
125	0x26	38
126	0xcd	-51
127	0x54	84
128	0xce	-50
129	0x42	66
130	0x29	41
131	0x5a	90
132	0x9d	-99
133	0x37	55
134	0x7f	127
135	0x4c	76
136	0x0c	12
137	0x38	56
138	0x7f	127
139	0x3f	63
140	0xfd	-3
141	0x1b	27
142	0xe0	-32
143	0x9b	-101
144	0x15	21
145	0xc9	-55
146	0xeb	-21
147	0xb5	-75
148	0xc7	-57
149	0x2d	45
150	0xc3	-61
151	0xf6	-10
152	0xb3	-77
153	0x14	20
154	0x90	-112
155	0x01	1
156	0x2b	43
157	0x66	102
158	0x3d	61
159	0x52	82
160	0x00	0
161	0x46	70
162	0xba	-70
163	0x20	32
164	0xb4	-76
165	0x15	21
166	0x52	82
167	0xb6	-74
168	0xda	-38
169	0x69	105
170	0xc9	-55
171	0x1a	26
172	0x20	32
173	0xe8	-24
174	0x00	0
175	0x16	22
176	0xae	-82
177	0x1c	28
178	0xc6	-58
179	0x20	32
180	0xdd	-35
181	0x3f	63
182	0xa2	-94
183	0x1d	29
184	0x48	72
185	0xd2	-46
186	0xc5	-59
187	0x71	113
188	0x81	-127
189	0xf0	-16
190	0x3c	60
191	0xef	-17
192	0x36	54
193	0xce	-50
194	0x5b	91
195	0x79	121
196	0x68	104
197	0x36	54
198	0x7f	127
199	0x09	9
200	0x9d	-99
201	0x66	102
202	0xcb	-53
203	0x1f	31
204	0x08	8
205	0x74	116
206	0x5a	90
207	0x27	39
208	0xa5	-91
209	0xa0	-96
210	0x4e	78
211	0xb7	-73
212	0xeb	-21
213	0x13	19
214	0x19	25
215	0xd4	-44
216	0x28	40
217	0xb8	-72
218	0xc7	-57
219	0x79	121
220	0xfb	-5
221	0x4e	78
222	0x7e	126
223	0xc9	-55
224	0xfa	-6
225	0x96	-106
226	0x19	25
227	0x6b	107
228	0xd2	-46
229	0xc7	-57
230	0xcc	-52
231	0xb8	-72
232	0x85	-123
233	0x37	55
234	0xe6	-26
235	0x08	8
236	0xcf	-49
237	0x12	18
238	0xb1	-79
239	0x52	82
240	0x81	-127
241	0x49	73
242	0x6a	106
243	0x11	17
244	0x12	18
245	0x67	103
246	0x46	70
247	0x25	37
248	0x51	81
249	0x59	89
250	0x7f	127
251	0xd2	-46
252	0x02	2
253	0x33	51
254	0x6b	107
255	0x7d	125

sequential/conv2d_1/Conv2D;StatefulPartitionedCall/sequential/conv2d_1/Conv2D i1 [16, 3, 3, 32]
0	0xc7	-57
1	0xf0	-16
2	0xc8	-56
3	0x51	81
4	0xe7	-25
5	0xbf	-65
6	0x59	89
7	0xe0	-32
8	0x44	68
9	0xfb	-5
10	0xad	-83
11	0xf7	-9
12	0xec	-20
13	0xad	-83
14	0x06	6
15	0xdc	-36
16	0x2e	46
17	0x90	-112
18	0x67	103
19	0x4e	78
20	0x33	51
21	0x5e	94
22	0x6a	106
23	0x09	9
24	0x3c	60
25	0xf3	-13
26	0xc5	-59
27	0x5b	91
28	0x03	3
29	0xde	-34
30	0xcc	-52
31	0x56	86
32	0x05	5
33	0x17	23
34	0x5a	90
35	0x04	4
36	0xdf	-33
37	0xe2	-30
38	0xdf	-33
39	0xb1	-79
40	0x94	-108
41	0x30	48
42	0xa8	-88
43	0x2f	47
44	0x55	85
45	0x44	68
46	0xfd	-3
47	0x2b	43
48	0x03	3
49	0xf5	-11
50	0xbe	-66
51	0x65	101
52	0x38	56
53	0xc1	-63
54	0x23	35
55	0x49	73
56	0x0a	10
57	0x17	23
58	0xca	-54
59	0xfa	-6
60	0x11	17
61	0xcf	-49
62	0xa6	-90
63	0xaa	-86
64	0xa8	-88
65	0x12	18
66	0xad	-83
67	0x0e	14
68	0xdc	-36
69	0x35	53
70	0x31	49
71	0x6a	106
72	0x93	-109
73	0x4f	79
74	0x47	71
75	0x47	71
76	0xf0	-16
77	0xf3	-13
78	0xad	-83
79	0x3b	59
80	0x1f	31
81	0xb0	-80
82	0x20	32
83	0x14	20
84	0x19	25
85	0x49	73
86	0xc7	-57
87	0x2e	46
88	0x10	16
89	0xb6	-74
90	0x24	36
91	0xb1	-79
92	0xce	-50
93	0xd0	-48
94	0xc4	-60
95	0x1c	28
96	0x3f	63
97	0xd9	-39
98	0xce	-50
99	0x51	81
100	0x3f	63
101	0xf8	-8
102	0x23	35
103	0xac	-84
104	0xac	-84
105	0xf9	-7
106	0xb2	-78
107	0xe8	-24
108	0x9f	-97
109	0xd7	-41
110	0x1b	27
111	0x4d	77
112	0xe4	-28
113	0x01	1
114	0xeb	-21
115	0x46	70
116	0x63	99
117	0x5c	92
118	0x1c	28
119	0xfe	-2
120	0x14	20
121	0x19	25
122	0xfd	-3
123	0x21	33
124	0x24	36
125	0x52	82
126	0x2b	43
127	0x9c	-100
128	0x19	25
129	0xae	-82
130	0x27	39
131	0xd7	-41
132	0x0e	14
133	0x1f	31
134	0x6f	111
135	0x12	18
136	0xef	-17
137	0x58	88
138	0xef	-17
139	0xd1	-47
140	0xc3	-61
141	0x0d	13
142	0x24	36
143	0x4c	76
144	0x59	89
145	0xbe	-66
146	0xfd	-3
147	0x29	41
148	0xb2	-78
149	0x36	54
150	0x1e	30
151	0xf9	-7
152	0xa1	-95
153	0xe3	-29
154	0xa4	-92
155	0xa9	-87
156	0xb2	-78
157	0xd4	-44
158	0x03	3
159	0xed	-19
160	0x2a	42
161	0x1c	28
162	0xe4	-28
163	0x22	34
164	0x35	53
165	0x46	70
166	0x37	55
167	0xb6	-74
168	0x93	-109
169	0x46	70
170	0x4d	77
171	0x4d	77
172	0xe4	-28
173	0xdc	-36
174	0xd6	-42
175	0x59	89
176	0x9b	-101
177	0xea	-22
178	0x36	54
179	0x02	2
180	0xad	-83
181	0xf1	-15
182	0x01	1
183	0x3c	60
184	0x19	25
185	0x02	2
186	0x40	64
187	0x3b	59
188	0xa0	-96
189	0x0e	14
190	0xf3	-13
191	0x0d	13
192	0xf7	-9
193	0xf9	-7
194	0xb7	-73
195	0xbf	-65
196	0xb5	-75
197	0x57	87
198	0xfd	-3
199	0x46	70
200	0x88	-120
201	0xe6	-26
202	0x5d	93
203	0xdf	-33
204	0xac	-84
205	0xc1	-63
206	0xa0	-96
207	0x08	8
208	0x04	4
209	0xb4	-76
210	0x35	53
211	0x37	55
212	0x11	17
213	0xf7	-9
214	0x09	9
215	0xf6	-10
216	0x8f	-113
217	0xdd	-35
218	0xf2	-14
219	0x03	3
220	0x23	35
221	0xe9	-23
222	0xaa	-86
223	0x8d	-115
224	0xe8	-24
225	0xcb	-53
226	0xcc	-52
227	0xcd	-51
228	0x05	5
229	0xe5	-27
230	0x2a	42
231	0x58	88
232	0x91	-111
233	0xe2	-30
234	0x55	85
235	0x6d	109
236	0x41	65
237	0xb5	-75
238	0xd6	-42
239	0x3b	59
240	0x03	3
241	0xc1	-63
242	0x4a	74
243	0x32	50
244	0x11	17
245	0x0f	15
246	0xf0	-16
247	0x2d	45
248	0x25	37
249	0xe3	-29
250	0xda	-38
251	0x33	51
252	0xd8	-40
253	0xb6	-74
254	0xac	-84
255	0x0e	14
