models/openMV/gloves_detection_openmv_v5_256_TL/trained.tflite (tflite, 17888 bytes, 3 tensors)

sequential/y_pred/MatMul;StatefulPartitionedCall/sequential/y_pred/MatMul i1 [3, 2304] scale=0.002453084 zero_point=0
0	0x08	0.019624673
1	0xf3	-0.031890094
2	0xf0	-0.039249346
3	0x0a	0.024530841
4	0x23	0.08585794
5	0x09	0.022077758
6	0xfb	-0.0122654205
7	0x01	0.002453084
8	0xfb	-0.0122654205
9	0xf9	-0.017171588
10	0xf0	-0.039249346
11	0xf9	-0.017171588
12	0x07	0.017171588
13	0x0f	0.03679626
14	0x17	0.056420933
15	0xc4	-0.14718504
16	0xf7	-0.022077758
17	0x0e	0.034343176
18	0xe3	-0.07113944
19	0xfa	-0.014718505
20	0x27	0.09567028
21	0x0e	0.034343176
22	0xe0	-0.07849869
23	0x05	0.0122654205
24	0x0f	0.03679626
25	0xf8	-0.019624673
26	0x17	0.056420933
27	0xdc	-0.08831103
28	0x04	0.009812336
29	0xf8	-0.019624673
30	0xf2	-0.034343176
31	0xbd	-0.16435663
32	0x00	0.0
33	0x11	0.04170243
34	0xf6	-0.024530841
35	0xec	-0.049061682
36	0xfd	-0.0073592523
37	0x13	0.046608597
38	0xd3	-0.110388786
39	0xf6	-0.024530841
40	0x07	0.017171588
41	0xe4	-0.06868635
42	0x02	0.004906168
43	0xd1	-0.115294956
44	0x09	0.022077758
45	0xd4	-0.1079357
46	0xd8	-0.098123364
47	0xe7	-0.061327104
48	0xfd	-0.0073592523
49	0xf9	-0.017171588
50	0xf6	-0.024530841
51	0xf8	-0.019624673
52	0xfa	-0.014718505
53	0x03	0.0073592523
54	0xdf	-0.08095177
55	0xf8	-0.019624673
56	0xf9	-0.017171588
57	0xe8	-0.05887402
58	0xc4	-0.14718504
59	0xcb	-0.13001345
60	0xf7	-0.022077758
61	0xc6	-0.14227888
62	0xd7	-0.100576445
63	0xc4	-0.14718504
64	0x0a	0.024530841
65	0x1a	0.06378019
66	0xfc	-0.009812336
67	0x01	0.002453084
68	0x1c	0.06868635
69	0x09	0.022077758
70	0xd8	-0.098123364
71	0xe9	-0.056420933
72	0x00	0.0
73	0xe6	-0.06378019
74	0xe1	-0.07604561
75	0xcb	-0.13001345
76	0xfa	-0.014718505
77	0xcf	-0.12020112
78	0xb8	-0.17662206
79	0xb3	-0.18888748
80	0x06	0.014718505
81	0x0f	0.03679626
82	0xff	-0.002453084
83	0xfd	-0.0073592523
84	0x14	0.049061682
85	0xf1	-0.03679626
86	0xca	-0.13246654
87	0xf1	-0.03679626
88	0x13	0.046608597
89	0xea	-0.05396785
90	0xee	-0.044155516
91	0xfb	-0.0122654205
92	0x19	0.061327104
93	0xda	-0.093217194
94	0xe5	-0.06623327
95	0xba	-0.17171589
96	0xf1	-0.03679626
97	0x05	0.0122654205
98	0xf6	-0.024530841
99	0x13	0.046608597
100	0xff	-0.002453084
101	0xf6	-0.024530841
102	0xd0	-0.11774804
103	0xfd	-0.0073592523
104	0x0b	0.026983924
105	0xef	-0.04170243
106	0xd3	-0.110388786
107	0xdb	-0.09076411
108	0x07	0.017171588
109	0xea	-0.05396785
110	0xd2	-0.11284187
111	0xd2	-0.11284187
112	0xf2	-0.034343176
113	0xf0	-0.039249346
114	0xf8	-0.019624673
115	0xfb	-0.0122654205
116	0x23	0.08585794
117	0xfc	-0.009812336
118	0xdc	-0.08831103
119	0xf1	-0.03679626
120	0xff	-0.002453084
121	0xf6	-0.024530841
122	0xd7	-0.100576445
123	0xdc	-0.08831103
124	0xfe	-0.004906168
125	0xf0	-0.039249346
126	0xd3	-0.110388786
127	0xb6	-0.18152823
128	0xe3	-0.07113944
129	0x0d	0.031890094
130	0xed	-0.046608597
131	0x11	0.04170243
132	0x07	0.017171588
133	0xf8	-0.019624673
134	0xd8	-0.098123364
135	0xff	-0.002453084
136	0xff	-0.002453084
137	0xec	-0.049061682
138	0xf6	-0.024530841
139	0xfd	-0.0073592523
140	0x0f	0.03679626
141	0xda	-0.093217194
142	0xed	-0.046608597
143	0xe3	-0.07113944
144	0xf6	-0.024530841
145	0x13	0.046608597
146	0xeb	-0.051514767
147	0x11	0.04170243
148	0x0e	0.034343176
149	0xee	-0.044155516
150	0xdc	-0.08831103
151	0xf3	-0.031890094
152	0x1b	0.06623327
153	0x07	0.017171588
154	0xd6	-0.103029534
155	0xee	-0.044155516
156	0xf9	-0.017171588
157	0xd7	-0.100576445
158	0xdb	-0.09076411
159	0xe5	-0.06623327
160	0x06	0.014718505
161	0x19	0.061327104
162	0x01	0.002453084
163	0xf9	-0.017171588
164	0xf6	-0.024530841
165	0x15	0.051514767
166	0xf3	-0.031890094
167	0xff	-0.002453084
168	0x0f	0.03679626
169	0xf7	-0.022077758
170	0xd3	-0.110388786
171	0xee	-0.044155516
172	0x07	0.017171588
173	0xf9	-0.017171588
174	0xfd	-0.0073592523
175	0xee	-0.044155516
176	0x05	0.0122654205
177	0xff	-0.002453084
178	0xf8	-0.019624673
179	0x10	0.039249346
180	0x1e	0.07359252
181	0x09	0.022077758
182	0xcd	-0.12510729
183	0xe5	-0.06623327
184	0xef	-0.04170243
185	0xf0	-0.039249346
186	0xf3	-0.031890094
187	0xe5	-0.06623327
188	0x0f	0.03679626
189	0xe2	-0.07359252
190	0xfc	-0.009812336
191	0xbc	-0.16680972
192	0xf9	-0.017171588
193	0x03	0.0073592523
194	0x14	0.049061682
195	0xff	-0.002453084
196	0x04	0.009812336
197	0x16	0.05396785
198	0x27	0.09567028
199	0xf6	-0.024530841
200	0x08	0.019624673
201	0xf3	-0.031890094
202	0x07	0.017171588
203	0xee	-0.044155516
204	0xf7	-0.022077758
205	0xf2	-0.034343176
206	0x08	0.019624673
207	0x1d	0.07113944
208	0xec	-0.049061682
209	0xf2	-0.034343176
210	0x29	0.100576445
211	0x12	0.044155516
212	0x08	0.019624673
213	0x05	0.0122654205
214	0x23	0.08585794
215	0xc5	-0.14473197
216	0x05	0.0122654205
217	0x15	0.051514767
218	0x01	0.002453084
219	0xdc	-0.08831103
220	0x08	0.019624673
221	0xfe	-0.004906168
222	0x28	0.098123364
223	0x04	0.009812336
224	0xec	-0.049061682
225	0xf4	-0.02943701
226	0x19	0.061327104
227	0xfa	-0.014718505
228	0xf7	-0.022077758
229	0x05	0.0122654205
230	0xed	-0.046608597
231	0xda	-0.093217194
232	0x03	0.0073592523
233	0xf1	-0.03679626
234	0xce	-0.12265421
235	0xf2	-0.034343176
236	0x12	0.044155516
237	0xf0	-0.039249346
238	0x08	0.019624673
239	0x0b	0.026983924
240	0x00	0.0
241	0xed	-0.046608597
242	0x02	0.004906168
243	0xfd	-0.0073592523
244	0xd8	-0.098123364
245	0xf8	-0.019624673
246	0xe5	-0.06623327
247	0x85	-0.30172935
248	0xff	-0.002453084
249	0xf4	-0.02943701
250	0x97	-0.25757384
251	0xd6	-0.103029534
252	0xf5	-0.026983924
253	0x06	0.014718505
254	0xe7	-0.061327104
255	0x03	0.0073592523

sequential/conv2d/Conv2D;StatefulPartitionedCall/sequential/conv2d/Conv2D i1 [32, 3, 3, 3]
0	0xa2	-94
1	0x4a	74
2	0x47	71
3	0xe8	-24
4	0xca	-54
5	0x97	-105
6	0x60	96
7	0xf9	-7
8	0xb9	-71
9	0x81	-127
10	0x63	99
11	0xf4	-12
12	0x02	2
13	0xb7	-73
14	0xdc	-36
15	0xad	-83
16	0xe5	-27
17	0x26	38
18	0x7d	125
19	0xdf	-33
20	0x21	33
21	0x64	100
22	0xd6	-42
23	0xfc	-4
24	0x9c	-100
25	0x50	80
26	0x1e	30
27	0x0c	12
28	0x18	24
29	0xf2	-14
30	0x61	97
31	0xec	-20
32	0x9c	-100
33	0x5c	92
34	0xb5	-75
35	0x20	32
36	0xf7	-9
37	0xbf	-65
38	0xb7	-73
39	0x57	87
40	0x81	-127
41	0xee	-18
42	0x23	35
43	0x5a	90
44	0xd1	-47
45	0x36	54
46	0x92	-110
47	0x86	-122
48	0x32	50
49	0x42	66
50	0x6d	109
51	0xf2	-14
52	0xb7	-73
53	0xf3	-13
54	0xf9	-7
55	0xa4	-92
56	0xe8	-24
57	0x32	50
58	0x1e	30
59	0xba	-70
60	0xc9	-55
61	0xaf	-81
62	0x45	69
63	0xee	-18
64	0xbe	-66
65	0xd2	-46
66	0xd0	-48
67	0x39	57
68	0x35	53
69	0xbd	-67
70	0xf7	-9
71	0xfd	-3
72	0x29	41
73	0x7f	127
74	0xbf	-65
75	0x46	70
76	0xdb	-37
77	0x2c	44
78	0xb6	-74
79	0x4f	79
80	0xa2	-94
81	0x81	-127
82	0x56	86
83	0xe9	-23
84	0x03	3
85	0x17	23
86	0x11	17
87	0x47	71
88	0xcf	-49
89	0x00	0
90	0xa1	-95
91	0xd9	-39
92	0x41	65
93	0xcd	-51
94	0xdc	-36
95	0xfa	-6
96	0xe4	-28
97	0xe2	-30
98	0x1f	31
99	0x8d	-115
100	0xa4	-92
101	0x09	9
102	0x2c	44
103	0x20	32
104	0x53	83
105	0x4b	75
106	0x0d	13
107	0xcf	-49
108	0xfd	-3
109	0x50	80
110	0x81	-127
111	0x05	5
112	0x10	16
113	0xfe	-2
114	0x17	23
115	0x54	84
116	0x44	68
117	0x65	101
118	0xc8	-56
119	0x26	38
120	0x00	0
121	0x95	-107
122	0x4d	77
123	0xed	-19
124	0x18	24
125	0xfe	-2
126	0xdd	-35
127	0x41	65
128	0xb7	-73
129	0x45	69
130	0x19	25
131	0x35	53
132	0xa8	-88
133	0x1d	29
134	0x4f	79
135	0x45	69
136	0x08	8
137	0x2f	47
138	0x7f	127
139	0x44	68
140	0x0b	11
141	0x1a	26
142	0xe1	-31
143	0xa3	-93
144	0x0b	11
145	0xc4	-60
146	0xe3	-29
147	0xbb	-69
148	0xcb	-53
149	0x2b	43
150	0xbb	-69
151	0xe6	-26
152	0xad	-83
153	0x0c	12
154	0x92	-110
155	0xfa	-6
156	0x2b	43
157	0x5f	95
158	0x40	64
159	0x44	68
160	0xf9	-7
161	0x3d	61
162	0x9e	-98
163	0xe6	-26
164	0xad	-83
165	0x23	35
166	0x4b	75
167	0xd0	-48
168	0xf0	-16
169	0x7f	127
170	0xf7	-9
171	0x0e	14
172	0xe9	-23
173	0xfb	-5
174	0xee	-18
175	0xee	-18
176	0xb6	-74
177	0x25	37
178	0x9b	-101
179	0x4d	77
180	0xb2	-78
181	0x15	21
182	0xbd	-67
183	0x11	17
184	0x34	52
185	0xf6	-10
186	0xa5	-91
187	0x66	102
188	0x83	-125
189	0xe4	-28
190	0x32	50
191	0xe7	-25
192	0x24	36
193	0xb9	-71
194	0x50	80
195	0x6e	110
196	0x5b	91
197	0x2c	44
198	0x7f	127
199	0x06	6
200	0x9c	-100
201	0x61	97
202	0xc1	-63
203	0x1e	30
204	0x04	4
205	0x71	113
206	0x5c	92
207	0x21	33
208	0x9d	-99
209	0x9e	-98
210	0x4a	74
211	0xb0	-80
212	0xed	-19
213	0x11	17
214	0x16	22
215	0xd7	-41
216	0x1f	31
217	0xac	-84
218	0xb2	-78
219	0x7b	123
220	0xfa	-6
221	0x3a	58
222	0x7f	127
223	0xca	-54
224	0xe8	-24
225	0x98	-104
226	0x05	5
227	0x47	71
228	0xd4	-44
229	0xbe	-66
230	0xb4	-76
231	0xbe	-66
232	0x81	-127
233	0x15	21
234	0xed	-19
235	0xfe	-2
236	0xbd	-67
237	0x19	25
238	0xb2	-78
239	0x36	54
240	0x96	-106
241	0x40	64
242	0x4d	77
243	0x15	21
244	0x10	16
245	0x53	83
246	0x47	71
247	0x21	33
248	0x3e	62
249	0x50	80
250	0x71	113
251	0xc0	-64
252	0x0b	11
253	0x34	52
254	0x5d	93
255	0x7f	127

sequential/conv2d_1/Conv2D;StatefulPartitionedCall/sequential/conv2d_1/Conv2D i1 [16, 3, 3, 32]
0	0xe6	-26
1	0x03	3
2	0xff	-1
3	0x30	48
4	0xf4	-12
5	0xc3	-61
6	0x50	80
7	0xf3	-13
8	0x38	56
9	0xfe	-2
10	0xcd	-51
11	0xff	-1
12	0xff	-1
13	0xc8	-56
14	0xbd	-67
15	0xec	-20
16	0xf8	-8
17	0xd4	-44
18	0x11	17
19	0x2c	44
20	0xea	-22
21	0x39	57
22	0x0d	13
23	0x0a	10
24	0x1b	27
25	0xe2	-30
26	0xc6	-58
27	0x41	65
28	0xff	-1
29	0xea	-22
30	0xe0	-32
31	0x4d	77
32	0x00	0
33	0x10	16
34	0x40	64
35	0xf7	-9
36	0xed	-19
37	0xdb	-37
38	0xfc	-4
39	0xd3	-45
40	0xc9	-55
41	0x20	32
42	0xcb	-53
43	0x21	33
44	0x3f	63
45	0x23	35
46	0xb7	-73
47	0x18	24
48	0xe0	-32
49	0x0a	10
50	0xa8	-88
51	0x3b	59
52	0xda	-38
53	0xd8	-40
54	0xd5	-43
55	0x29	41
56	0xf0	-16
57	0xfb	-5
58	0xc3	-61
59	0xf3	-13
60	0xee	-18
61	0xdc	-36
62	0xc9	-55
63	0xd7	-41
64	0xc7	-57
65	0x0b	11
66	0xcf	-49
67	0x06	6
68	0xe9	-23
69	0x12	18
70	0x23	35
71	0x3f	63
72	0xd2	-46
73	0x31	49
74	0x2b	43
75	0x2f	47
76	0xfc	-4
77	0xf1	-15
78	0x88	-120
79	0x20	32
80	0x07	7
81	0xe4	-28
82	0xf1	-15
83	0x09	9
84	0xc5	-59
85	0x28	40
86	0x9d	-99
87	0x1c	28
88	0xf0	-16
89	0xc6	-58
90	0xf5	-11
91	0xf4	-12
92	0xbf	-65
93	0xdd	-35
94	0xdc	-36
95	0x2d	45
96	0x2b	43
97	0xeb	-21
98	0x17	23
99	0x2a	42
100	0x25	37
101	0xef	-17
102	0x38	56
103	0xcb	-53
104	0xe4	-28
105	0xf8	-8
106	0xd1	-47
107	0xf0	-16
108	0xd1	-47
109	0xdf	-33
110	0xd0	-48
111	0x2c	44
112	0xd6	-42
113	0x19	25
114	0xe0	-32
115	0x23	35
116	0x1e	30
117	0x33	51
118	0xf7	-9
119	0xfa	-6
120	0xf4	-12
121	0x0b	11
122	0xe5	-27
123	0x3c	60
124	0x05	5
125	0x32	50
126	0x18	24
127	0xe3	-29
128	0x13	19
129	0xcb	-53
130	0x2c	44
131	0xd7	-41
132	0x06	6
133	0x09	9
134	0x4c	76
135	0x06	6
136	0xfa	-6
137	0x32	50
138	0xf5	-11
139	0xe1	-31
140	0xcb	-53
141	0x01	1
142	0xdd	-35
143	0x2b	43
144	0x10	16
145	0xd7	-41
146	0xdd	-35
147	0x13	19
148	0xb0	-80
149	0x1d	29
150	0xf6	-10
151	0xf9	-7
152	0xa7	-89
153	0xe6	-26
154	0xb2	-78
155	0xc3	-61
156	0xd5	-43
157	0xe5	-27
158	0xfe	-2
159	0xe9	-23
160	0x1b	27
161	0x0a	10
162	0x05	5
163	0x14	20
164	0x1c	28
165	0x25	37
166	0x1d	29
167	0xca	-54
168	0xc7	-57
169	0x26	38
170	0x2f	47
171	0x2b	43
172	0xea	-22
173	0xdf	-33
174	0xb0	-80
175	0x30	48
176	0xba	-70
177	0x12	18
178	0x0b	11
179	0xfc	-4
180	0xa4	-92
181	0xf0	-16
182	0xee	-18
183	0x1f	31
184	0xf5	-11
185	0xff	-1
186	0x0d	13
187	0x30	48
188	0xb7	-73
189	0x07	7
190	0xf5	-11
191	0x2a	42
192	0x03	3
193	0xf8	-8
194	0x02	2
195	0xce	-50
196	0xd2	-46
197	0x28	40
198	0x1e	30
199	0x26	38
200	0xbd	-67
201	0xed	-19
202	0x39	57
203	0xec	-20
204	0xda	-38
205	0xd5	-43
206	0x81	-127
207	0x03	3
208	0xfa	-6
209	0xee	-18
210	0x0f	15
211	0x1d	29
212	0xe2	-30
213	0xf7	-9
214	0xe7	-25
215	0xf6	-10
216	0x9d	-99
217	0xed	-19
218	0xe0	-32
219	0x2b	43
220	0x14	20
221	0xf2	-14
222	0xcc	-52
223	0xec	-20
224	0xf9	-7
225	0xdb	-37
226	0xf7	-9
227	0xd5	-43
228	0x02	2
229	0xe5	-27
230	0x2e	46
231	0x31	49
232	0xbc	-68
233	0xea	-22
234	0x34	52
235	0x42	66
236	0x16	22
237	0xce	-50
238	0xa1	-95
239	0x23	35
240	0x00	0
241	0xe9	-23
242	0x0a	10
243	0x1a	26
244	0xe5	-27
245	0x07	7
246	0xde	-34
247	0x17	23
248	0xfc	-4
249	0xde	-34
250	0xcc	-52
251	0x3b	59
252	0xd1	-47
253	0xd4	-44
254	0xcc	-52
255	0x0e	14
